include/PlasticModel/Models_lv/Yld2004-18p_f_NN.pth (torch, 88489 bytes, 7 tensors)

weight f4 [100, 6]
000000 61 a0 89 3d 13 ad b0 3e 65 c8 b5 3b 6e 0f d7 be
       0.06720043 0.34507045 0.0055475705 -0.4200396
000010 44 b5 d8 bf ae 5a a3 ba 90 33 85 bd 06 64 00 3d
       -1.6930318 -0.0012462938 -0.065039754 0.03134539
000020 3d 50 d8 3d e5 cd 91 3c 02 de 9a bd 43 c6 49 3b
       0.10562179 0.017798373 -0.07561876 0.003078834
000030 40 61 8f 3d 6a 04 71 3e 52 80 de be 92 72 d2 be
       0.07000971 0.2353684 -0.43457276 -0.41103035
000040 a4 54 8d 3f eb db 25 bb 43 8c ba 3d a8 f7 d9 3c
       1.1041455 -0.0025308083 0.09108784 0.02660735
000050 a0 a4 cf 3f ae 18 1e be d6 29 96 3c 9e 1b dd bb
       1.6222115 -0.15439102 0.018330496 -0.006747677
000060 5d 38 b8 3c a4 5f 62 3d 14 45 08 be f6 27 08 bd
       0.022487814 0.05526699 -0.13307601 -0.033241235
000070 66 4d 32 be 1b 8f f2 3c fa 72 8f 3d ed ad 0a bf
       -0.17412338 0.029609254 0.07004352 -0.5417164
000080 7b 42 bb bf 9e 97 78 be d7 df 97 bc 38 2f 8a ba
       -1.4629663 -0.24276587 -0.018539352 -0.0010542637
000090 c3 ef 78 3e 0d 1b d1 3e 18 11 e0 bd 1c 31 2f 3f
       0.24310212 0.4084095 -0.109407604 0.6843431
0000a0 f5 a5 39 bd 26 e4 73 bb e0 22 9c 3d cc a1 04 3b
       -0.045324285 -0.0037214844 0.076238394 0.002023804
0000b0 63 98 49 bd 55 ac e2 3d 47 ba 18 be d4 56 87 be
       -0.049217593 0.11068026 -0.14914809 -0.26433432
0000c0 9e 8d f1 3d 24 12 db 3f 52 97 ea 3c 31 ba ef be
       0.117945895 1.7114911 0.028636608 -0.4682174
0000d0 e1 0d 29 3f 95 b5 e2 bb e7 db 3b 3e 94 dd da bf
       0.660368 -0.006918619 0.18345605 -1.709887
0000e0 19 51 1d 3b 8d fc c5 bd a5 6f e0 3b 92 05 5a bb
       0.0024004637 -0.09667311 0.0068492466 -0.003326748
0000f0 4a 9b 13 3e 56 1f 79 bf d8 2a fe be 74 b8 ec 3e
       0.14414707 -0.9731344 -0.49642062 0.46234477
000100 39 e0 6b be 41 52 e7 ba 90 ff fe 3d cc 08 67 c0
       -0.23034753 -0.0017648415 0.124510884 -3.609912
000110 b5 05 1e 3a 10 05 6d bd 9b 0e 57 3c 0e 94 ee ba
       0.0006028072 -0.057866156 0.013126041 -0.0018202083
000120 2c ac ae 3d bc 87 61 3c 5d 46 55 bc a3 1c f2 be
       0.08528933 0.013765272 -0.013017264 -0.47287473
000130 31 db 15 c0 e3 91 ef b9 c9 6a 8f 3d 57 27 02 c0
       -2.3415034 -0.00045694326 0.070027895 -2.033651
000140 d2 0e a6 3b d8 f6 94 3e 62 b8 fd 3a c5 54 84 ba
       0.0050676847 0.29094577 0.0019357319 -0.0010096064
000150 df d9 2e bd 27 47 e2 bd 88 7f c1 bd 8c bd 22 be
       -0.042688247 -0.110487275 -0.09448153 -0.15892619
000160 85 99 b2 bd b8 24 02 3e 4f 55 8a be 86 07 66 3f
       -0.08720688 0.1270932 -0.2701821 0.8985523
000170 21 b8 86 bb 1b a1 80 be e1 00 bc bb 2a c3 cf 3a
       -0.0041113053 -0.25122914 -0.0057374095 0.001585101
000180 34 09 26 3e d4 fb b2 bd b2 ba 3c c0 fe f5 13 bf
       0.16214448 -0.08739439 -2.948895 -0.5779723
000190 44 1e 7b 3d 69 16 b6 bb 63 50 8f 3d 62 24 13 bb
       0.06130816 -0.0055568707 0.069977544 -0.0022452106
0001a0 ec 2c 99 ba fa 29 e1 ba b8 a1 50 3a be 51 20 c0
       -0.0011686361 -0.0017178648 0.0007958668 -2.5049891
0001b0 6a fa e3 3d 80 7d 29 3e 49 f4 81 3d 98 b4 0a bf
       0.11131747 0.1655178 0.06345422 -0.54181814
0001c0 ba bb 9f 3f 18 8e 4b bb 14 16 d4 3d 1d 23 a1 bd
       1.2479165 -0.0031060036 0.103557736 -0.078680255
0001d0 48 bc 25 3d a2 a0 91 bd aa b3 11 be 4f 99 95 be
       0.040462762 -0.071107164 -0.14228693 -0.29218528
0001e0 4a a8 07 3e 3c da 37 bd 40 e6 cd be e3 41 13 be
       0.13247791 -0.04488586 -0.4021473 -0.14380603
0001f0 51 c3 6a be b9 bf 46 bb 05 36 0e 3e 70 27 9e bf
       -0.2292607 -0.0030326678 0.13887794 -1.2355785
000200 ac 7a 64 3b 0a 68 fe 3e 6f b9 dc 3b 50 af 11 bb
       0.0034863157 0.4968875 0.0067359726 -0.0022229739
000210 4b 64 b3 be b7 26 66 3f 29 17 0f bc 37 ae 5a 3d
       -0.35037455 0.89902824 -0.008733549 0.0533888
000220 35 b9 9f 3a 2f be bd 3a 87 cf 27 be b7 3e ec 3f
       0.0012185933 0.0014476235 -0.16387759 1.8456639
000230 82 2f 49 bb 25 80 c5 3d d5 63 28 ba 6d aa 96 3a
       -0.0030698483 0.09643582 -0.00064235675 0.0011494883
000240 0e ae 00 3e 79 17 e9 bd da 69 fe bb ee 77 1b bf
       0.12566397 -0.1138143 -0.0077640833 -0.60729873
000250 f0 da cd bf 7e 41 36 bb 1c fa 8c 3e 22 14 94 be
       -1.608244 -0.0027810032 0.27534568 -0.2892161
000260 50 7c e8 3b 86 db 87 3f 7d 49 63 3c 6d 61 9a bb
       0.0070948973 1.0613868 0.013872501 -0.004711321
000270 8b 3e 81 3b 5a 48 9e be 95 b7 1d be e9 d2 b6 ba
       0.0039442233 -0.30914575 -0.15402062 -0.0013948354
000280 61 31 58 bd 3d 38 c7 bd 57 36 d3 3d fa 3a 21 bb
       -0.052781466 -0.097275235 0.10313099 -0.0024601803
000290 d3 60 9a be a0 74 fa bd ab 3a db bd 45 17 ca be
       -0.30151996 -0.12229276 -0.107045494 -0.39470878
0002a0 82 c4 1f 3d 41 72 ab bd f7 2d 80 c0 ea 6c f4 bd
       0.039005764 -0.083714016 -4.005611 -0.11934836
0002b0 37 a6 6b 3d fb 39 6b ba be 03 a9 3e 02 d9 9e bd
       0.05753156 -0.00089731783 0.33010668 -0.07756235
0002c0 f4 7b fe 3b e3 d1 e4 3c 46 80 eb bb be dc f3 bb
       0.007766241 0.027932113 -0.0071869222 -0.007442086
0002d0 e5 15 04 3e 75 23 28 be 94 00 3e 40 07 5c ef be
       0.12898977 -0.16419776 2.9687853 -0.467499
0002e0 b3 6d 0e 3d 10 e9 9d bb 06 30 17 3e 5f 9d ac bd
       0.034772586 -0.004819043 0.14764413 -0.08428454
0002f0 a7 0a bc bf 6c c1 0f bf 27 b7 b4 3c 63 a6 d1 bb
       -1.4690751 -0.56154513 0.02205999 -0.0063980087
000300 82 ef 0a 3e 99 c9 3e 3f 07 d9 78 3d 66 27 24 bf
       0.13567927 0.74526364 0.06075385 -0.6412262
000310 10 b4 7f 3f 15 83 85 bb 31 5b c3 3d 7c ff 0d 40
       0.9988413 -0.004074464 0.09538878 2.2187185
000320 fe 8f 6e 3c 53 5f fa 3e 33 91 0f 3c 35 96 06 bb
       0.014560698 0.48900852 0.008762646 -0.0020536308
000330 92 26 eb bf f9 2e 20 bd 43 e0 16 3b 2d 04 c9 3c
       -1.8371146 -0.039107297 0.0023021854 0.024538124
000340 46 18 e9 bb ab e9 5d 3b 44 c9 50 be b1 b7 1c 3e
       -0.0071134893 0.00338612 -0.20389277 0.15304448
000350 17 a5 37 bd 39 d1 85 bd 2e 85 a7 be c2 8c 0e 3e
       -0.044835176 -0.06534047 -0.32718796 0.13920882
000360 57 76 5f be 6f c1 4a bd ff 0b 3d 3c 0e 7f 41 be
       -0.21822487 -0.04950088 0.011538505 -0.18896124
000370 9e 10 50 3c ba 91 35 3e c2 61 f5 3d 54 7d ad 3b
       0.012699274 0.17731372 0.119815364 0.0052944813
000380 d5 d9 da 3c e9 b1 05 3e b0 91 46 be ef e3 48 be
       0.026715199 0.13056149 -0.19391513 -0.196182
000390 90 c9 0f 3e f9 1f c8 bf b3 2b a0 39 5c 19 7c 3f
       0.14041734 -1.5634757 0.00030550137 0.98476195
0003a0 81 17 dd 39 23 36 8c ba 25 3a 5c 3d 8e db a9 3e
       0.00042169917 -0.0010697286 0.05376639 0.3317532
0003b0 85 40 ba bf a4 68 90 3d d2 25 3e bf b8 15 fd b9
       -1.455094 0.070512086 -0.7427646 -0.00048272102
0003c0 b8 61 05 3e c3 ad 54 c0 07 97 c8 ba d2 67 e7 bd
       0.13025558 -3.3231056 -0.0015303799 -0.11299099
0003d0 6b e6 a4 3b 91 61 3c bb 3a 82 7c 3e 3a 64 31 3c
       0.005032351 -0.0028744678 0.24659052 0.0108271185
0003e0 df 35 b4 bb ff c6 25 bf 9a df 5b bd cd d9 f8 bb
       -0.005499586 -0.6475677 -0.05368004 -0.0075943233
0003f0 37 78 9c 3d 24 96 3c bd 5e 39 3f 3c 3e 60 c3 bf
       0.07640117 -0.046041623 0.011671392 -1.5263746

bias f4 [100]
000000 9e 10 1a 3f 19 7f 97 be 8e 7e 9b be f9 9e 5f be
       0.60181606 -0.29589155 -0.3036999 -0.21837987
000010 c8 90 ad be db e7 4f 3f 57 03 81 3e 65 70 b0 be
       -0.33899522 0.8121316 0.2519786 -0.3446075
000020 0c 5c b8 bf 4a d8 9d 3f f9 7e 50 3f db 3a b2 3f
       -1.440309 1.2331631 0.81443745 1.3924211
000030 34 b3 9a 3f 6b 9c 33 3f 60 58 00 be b1 e0 5c be
       1.2085938 0.7016055 -0.12533712 -0.21570088
000040 54 0e c0 3f af c9 07 3f 44 ff 0b bf d1 70 c0 be
       1.5004373 0.5304212 -0.5468638 -0.37586072
000050 bb 4d 90 3f 29 6b fb 3e 6f f6 aa be 71 d7 b2 bf
       1.1273721 0.49105194 -0.3339114 -1.3971997
000060 b9 b9 a6 3f bc 07 99 bd 27 f1 14 be a2 e3 be be
       1.3025428 -0.07472178 -0.14545117 -0.37283045
000070 2d 68 62 3f 02 4a 73 3f 3a b8 ce bf 73 ae 70 3f
       0.8844021 0.950348 -1.6149971 0.9401619
000080 92 cf d5 be 99 8e f2 bf 2e 05 99 3e 95 3a c9 be
       -0.41759926 -1.8949767 0.29886764 -0.39302507
000090 ad 04 6c be da 1f 83 be cb 70 00 3e 78 ff d7 3e
       -0.23048659 -0.25610238 0.12543027 0.42187095
0000a0 54 87 d9 3f b7 44 82 3f af b5 0a 3f e7 e7 a2 be
       1.6994424 1.017722 0.5418348 -0.31817552
0000b0 6c b9 1c 3f 6e 13 4b bf a9 73 c7 be 97 d3 d5 bd
       0.6122043 -0.7932652 -0.3895543 -0.10440748
0000c0 dc 39 37 3e 13 3b 56 3f ee f1 de be 5e 33 0f bf
       0.17893165 0.8368389 -0.43543953 -0.55937755
0000d0 cb 5d 44 3f 4f a6 6d 3e 3a 89 58 3f d0 8c 33 bf
       0.76705617 0.23207973 0.8458439 -0.7013674
0000e0 ff 14 97 bf af c6 7a bf 54 5c 98 bf a9 64 31 3f
       -1.1803282 -0.9795942 -1.1903176 0.6929422
0000f0 db 3d a6 3f 7a da 84 be ad 7a 65 3f ce 84 52 3f
       1.2987627 -0.25947934 0.89640313 0.82233894
000100 7b 1b a5 3f bd 20 af 3e b5 c8 31 be 71 c5 b2 bf
       1.2899011 0.34204665 -0.1736172 -1.3966504
000110 0f 33 c3 3f 2f 4e 0f 3e 0b 1b 54 3f 20 8e d3 bf
       1.5249957 0.13994668 0.82853764 -1.6527748
000120 d3 35 92 be 1e 06 ba 3f e5 0b ba 3f 3c 67 9b 3f
       -0.2855669 1.4533117 1.453488 1.214088
000130 62 c2 60 3f 65 a6 16 c0 2d b7 bf be eb 77 13 3f
       0.87796605 -2.353906 -0.3744444 0.57604855
000140 e9 fb 8f be 72 75 49 bf ef e4 f6 3e 47 12 91 bf
       -0.2812188 -0.7869483 0.48221537 -1.1333703
000150 2c eb 8b be cd 96 3c 3f c9 eb 2e 3f 2e 36 83 3f
       -0.2732786 0.73667604 0.6832853 1.0250909
000160 f9 fd d2 bf 80 4a b0 3e 13 8b ce be 67 89 0e c0
       -1.6483756 0.3443184 -0.4034048 -2.2271364
000170 26 e7 b8 bf d0 1b 31 bd 92 56 27 c0 ef b9 e7 bf
       -1.4445541 -0.043239415 -2.6146588 -1.8103617
000180 8f ca 53 3f c2 c6 42 3f c1 74 ed be 64 8c b4 3e
       0.82730955 0.7608453 -0.4637814 0.3526336

weight f4 [100, 100]
000000 0d 35 01 c0 4f 02 44 bd 8e f6 a8 bd 9f a6 0e bf
       -2.018863 -0.047853764 -0.082501516 -0.55722994
000010 f7 bd fc 3b e3 c0 30 40 6d 33 d5 3d 69 ad bd bd
       0.0077130753 2.7617729 0.10410199 -0.09261591
000020 b0 73 22 40 02 02 10 c0 dc f1 1c be dd 5b 0f c1
       2.538311 -2.2501225 -0.15326637 -8.959928
000030 04 c9 90 40 af db 0b 41 0a 9f 05 bf 84 cf 09 bf
       4.524538 8.741134 -0.521958 -0.5383227
000040 21 d1 13 40 15 a9 ef 3c 1e 1e b6 bf 33 6d 12 bd
       2.3096392 0.02925543 -1.4227941 -0.03574867
000050 5f 1b 26 bf cf bb 85 3e 8f 3e ee 40 0d 13 fe 3f
       -0.64885515 0.2611985 7.4451365 1.9849564
000060 dc 65 7d c0 ce 50 d2 be 33 1a 7d bd 85 1c da bc
       -3.959342 -0.41077274 -0.061792564 -0.026624927
000070 36 23 86 40 33 22 f1 bd 38 f1 93 3e 8a 78 65 c0
       4.191798 -0.11774101 0.28894973 -3.5854821
000080 a5 06 35 40 0c aa 81 c0 c8 53 32 c0 2d c2 d3 bc
       2.8285306 -4.0520077 -2.7863636 -0.025849426
000090 3b 1d 62 bd 2f 2c 06 3e 05 0e 33 c0 7c 2e da c0
       -0.055203658 0.13102792 -2.7977307 -6.8181744
0000a0 48 6b cb 3f b2 7b 7e 3f b6 10 9b bf da 37 92 bd
       1.5892115 0.99407494 -1.2114475 -0.07139559
0000b0 14 79 4a bd 39 58 40 41 0b ba ea bd 36 59 00 bd
       -0.049431875 12.021539 -0.11461266 -0.03133508
0000c0 61 d4 d8 bf 60 90 c4 c0 c5 aa 15 3f 7f 56 c4 c1
       -1.6939813 -6.142624 0.584637 -24.542234
0000d0 73 ac 85 40 28 a4 e7 bf 4b 27 6c 40 d3 08 58 40
       4.177301 -1.8096972 3.6898983 3.3755386
0000e0 1a 36 b9 be 17 b0 66 42 74 0e f5 bf 88 8d 22 40
       -0.3617409 57.671963 -1.9145036 2.5398884
0000f0 9e 21 01 c0 8d 44 c7 bd ed d0 31 41 ce c0 4a c1
       -2.0176768 -0.09729872 11.113507 -12.672071
000100 90 bd 4c 3f 6b 57 38 40 fe fe 0c 3e 1d e3 d1 3c
       0.7997675 2.8803356 0.13769147 0.025620991
000110 be 70 d4 bf b0 69 ac bf 14 66 c6 3d cb 50 e9 c0
       -1.6596906 -1.3469753 0.096874386 -7.2911124
000120 e9 f1 41 bd e8 ac 02 3e a1 35 41 be e0 54 e5 bf
       -0.047349844 0.12761271 -0.18868114 -1.7916527
000130 9f 91 c9 bf b8 7b 21 c2 97 63 7e 3d b4 02 07 c0
       -1.5747565 -40.37082 0.062106695 -2.10954
000140 bc 75 bf be e5 b1 8b bd 87 07 19 bc 4c b5 57 40
       -0.37394512 -0.0682104 -0.009340174 3.3704405
000150 ab be e7 3d 8a fc 0b c0 cb 19 33 3f 44 d8 ad 3b
       0.11315664 -2.1872888 0.6996123 0.005305322
000160 57 c7 99 3e 1c 9c ae c1 f4 cb d3 bf e4 0b 0a c1
       0.30034897 -21.826225 -1.6546617 -8.627903
000170 9c 30 95 40 2f 56 89 3f 7a de 1d c0 96 79 3d c1
       4.662184 1.0729426 -2.466704 -11.842184
000180 e8 1b 1e bf 37 b0 43 be 44 61 af 3f 2e 40 12 40
       -0.6176133 -0.1911019 1.3701558 2.2851672
000190 72 ef c6 be 08 41 49 3e 85 82 c4 be 97 e7 44 c0
       -0.38854557 0.19653714 -0.38380828 -3.0766351
0001a0 88 39 48 3e 36 e2 c6 3d 82 d9 a5 be 07 59 19 be
       0.19553196 0.09711115 -0.32392508 -0.14975367
0001b0 68 51 81 3f c1 f7 fa c0 4a 41 80 40 33 85 79 bf
       1.0102968 -7.8427434 4.00797 -0.9746887
0001c0 bb b6 12 c0 10 15 60 c0 fa e3 96 bc ba d3 c2 bf
       -2.292403 -3.5012856 -0.018419255 -1.5220864
0001d0 b8 44 04 c0 fd 01 df bd 95 1b cb bf 8f b3 0e 3e
       -2.0666943 -0.10889051 -1.5867792 0.13935684
0001e0 5a 90 b7 bf d8 de 08 c1 27 35 72 c0 14 03 3e c0
       -1.4340928 -8.554405 -3.7844942 -2.9689379
0001f0 3e 6b 91 bf 75 07 f7 be 03 e4 8f 3c 47 6b 1e be
       -1.1360853 -0.48247877 0.01756478 -0.1547061
000200 12 af 5c be 03 86 c6 bf 5d 00 13 40 a7 79 43 c0
       -0.21551159 -1.5509647 2.2968972 -3.0543
000210 af f1 01 bf 5d f0 02 bf 79 73 0a c0 63 e2 1f 3e
       -0.50759405 -0.51148015 -2.163298 0.15613703
000220 a3 33 8d 3e bb dc 1c 3d 0f cc f2 3e 7f 60 3c c0
       0.27578458 0.038296442 0.4742131 -2.9433897
000230 90 67 cc c0 e4 28 49 3f 0f b7 5b c0 7a 01 8c 3c
       -6.387642 0.7857802 -3.433048 0.017090548
000240 a5 c8 07 bf a0 f9 8f bf 20 55 ab bd 3b f2 b6 bc
       -0.53040534 -1.1248055 -0.08365846 -0.022332301
000250 54 9f 9f c0 b2 23 b9 c0 d1 82 1c bf f0 90 97 bf
       -4.988199 -5.7856073 -0.6113711 -1.1841106
000260 30 63 8e bf a5 94 98 bf 98 7c 32 40 95 5b 58 3f
       -1.112402 -1.1920363 2.7888546 0.84514743
000270 27 2d 76 bf 62 0a 39 3e 4e 2c b8 bf d3 c7 c8 be
       -0.96162647 0.18070367 -1.4388521 -0.39214954
000280 82 c0 8b bf b3 70 9c bd c6 14 81 c0 5a 6d fa 3d
       -1.0918124 -0.07638683 -4.033786 0.122278884
000290 73 cf d1 3f e6 b6 cf c0 b5 82 8b 3e 26 5e 04 c0
       1.6391433 -6.4910765 0.2724816 -2.0682464
0002a0 4e 0c 96 3f a5 8a 94 be c0 b5 dc 40 b0 85 11 c0
       1.1722505 -0.29012027 6.8971863 -2.2737846
0002b0 73 3f 43 3b d8 b2 af bf 98 13 99 3f 8e d0 bd be
       0.0029792457 -1.3726454 1.1959105 -0.37073177
0002c0 d7 80 2b be 61 fc 43 bf bb 81 a0 bd e3 1a 2e c0
       -0.16748367 -0.76556975 -0.07837244 -2.720391
0002d0 b0 fa bd bf f6 b3 24 be c4 80 20 3e b1 27 e6 3e
       -1.4842129 -0.16084275 0.1567412 0.44952157
0002e0 23 ed 1f 3d 81 e4 6d c0 6c 66 5b c0 49 c7 fa c0
       0.03904451 -3.7170718 -3.4281263 -7.836827
0002f0 2b 1d 10 c0 71 f6 3a bd dd 6d 74 bf ee 64 f7 bf
       -2.2517803 -0.04564518 -0.9548014 -1.9327676
000300 5b 7a 9b bf 03 1b 68 c0 85 c9 e4 bf b5 ee cb be
       -1.2146715 -3.6266487 -1.7873999 -0.39830557
000310 f9 a2 9e bf f5 c3 a2 bd 97 db 40 bf 0d a8 cd c1
       -1.2393485 -0.07947532 -0.7533507 -25.707056
000320 ab 3b 7f 3f e7 7e 4b be 8d c5 b0 bf b8 17 ae bf
       0.9970042 -0.19872628 -1.3810288 -1.3600988
000330 4f 67 9e bd c8 f2 01 40 e4 0d db be 7b 74 d1 3d
       -0.07734548 2.0304432 -0.42784035 0.10227295
000340 5d 69 05 c0 ad 91 85 3d 33 60 25 bf 53 86 24 c0
       -2.0845559 0.06521926 -0.64599913 -2.5706985
000350 a9 bc 2c 40 64 5c 41 40 45 7d d4 3c a3 99 21 c0
       2.699015 3.021264 0.02593864 -2.5250022
000360 d5 49 42 c0 a5 5f 7c be c1 1f 3d 40 da 54 98 3c
       -3.0357563 -0.2464586 2.955063 0.018595148
000370 72 51 58 bf 8e 9f a7 be 1e 4f 67 c0 cb 33 90 40
       -0.84499276 -0.32738918 -3.614204 4.5063224
000380 df ed 0c bf a5 c1 c6 bf 49 e0 17 bd 1b 89 0c 3e
       -0.5505046 -1.5527846 -0.03707913 0.13724177
000390 dd f9 3f bf ab 4b 14 bf a7 13 bc 40 4e a7 a9 3e
       -0.74990636 -0.5792796 5.877399 0.33135456
0003a0 90 ff 90 bf 73 e9 36 c0 e5 27 eb bf 60 63 e2 3c
       -1.1327991 -2.8579986 -1.837155 0.027635276
0003b0 81 de 27 be a5 5b a3 bd 77 05 1b 3f 20 54 06 41
       -0.16393472 -0.07976464 0.60555214 8.395538
0003c0 52 c5 4c 3f 83 b5 87 bf ab 30 50 3f f7 8d da 3d
       0.79988587 -1.0602268 0.8132426 0.10671609
0003d0 54 5e a1 be 27 48 0c c0 cd 72 55 bd 36 ea 13 3e
       -0.3151728 -2.1919038 -0.052111436 0.14444813
0003e0 4b 2c b7 bf df c5 e8 bf 4f 37 c7 3f ca 36 2f 40
       -1.4310392 -1.8185385 1.5563754 2.737719
0003f0 90 6e f0 bf 87 1c 76 bf ce cb 19 bf 39 a5 25 c0
       -1.8783741 -0.9613728 -0.60076606 -2.5882094

bias f4 [100]
000000 e2 27 97 3f 0c f5 5b c0 e2 c6 46 be 8e 83 c2 3f
       1.1809046 -3.4368315 -0.19411805 1.5196397
000010 d6 35 ad bf fa 60 8c be 4b 49 50 bf a8 9d cd 3e
       -1.3532054 -0.27417737 -0.81361836 0.40159345
000020 0b b7 64 be 6c f0 6e be c1 2f 18 3f 75 ea 1b c0
       -0.2233545 -0.23333901 0.59447867 -2.4361851
000030 26 88 a5 bf 6f cb ad be f3 2e 8a bf 97 67 a8 be
       -1.2932174 -0.3394427 -1.0795578 -0.32891533
000040 eb 3d fe be 04 88 2b bd 55 56 b2 bf b7 29 3e be
       -0.49656615 -0.04187776 -1.3932596 -0.185706
000050 bc f1 92 3f ce 77 9b 3f 63 39 67 be a7 fc a3 3d
       1.1480021 1.2145936 -0.22580485 0.08007174
000060 4c 49 0a be ad 06 81 3f 8b 1d 5c 3f b9 72 c3 bc
       -0.13504523 1.0080162 0.8598258 -0.023858415
000070 49 37 cf be 1e 78 b1 be 05 b6 95 3c 25 63 27 bf
       -0.40471867 -0.34661955 0.01827527 -0.6538566
000080 9c 26 83 bf 02 6f 8a be 83 20 34 bd 98 41 0c 3f
       -1.0246158 -0.27037817 -0.043976318 0.5478759
000090 d3 92 54 be dc 2a 0c 3f 4a ba d4 be ad 04 25 be
       -0.20759134 0.547529 -0.41548377 -0.16115065
0000a0 eb 1f d1 3f 3b 46 2b 3e 2d fe e1 be 12 03 11 c0
       1.6337866 0.1672601 -0.44139233 -2.2658124
0000b0 07 fb aa bf 23 bc 1d 40 05 20 e5 bd ea fc 18 3f
       -1.3357857 2.464608 -0.11187748 0.59760916
0000c0 2d e3 b2 be 81 b2 f6 3e cb cf ed 3e 06 91 ba 3e
       -0.34938946 0.48183063 0.46447596 0.3643877
0000d0 f2 3f e2 be eb dd c2 bf c3 d6 c1 bf e2 aa 57 be
       -0.4418941 -1.5223974 -1.5143665 -0.2106128
0000e0 a7 43 d3 3f 63 aa 29 40 72 e0 16 c0 91 87 4e 40
       1.6505021 2.6510246 -2.357449 3.2270243
0000f0 61 3c 04 40 da b6 c5 be 49 a2 2e bf ba b6 41 3e
       2.0661852 -0.38616067 -0.6821638 0.18917361
000100 e5 8e ad 3f 43 80 49 be b3 95 86 3f 52 c8 8a 3e
       1.3559233 -0.19677834 1.0514435 0.27105957
000110 c1 2b 10 bd c1 d7 eb bf 78 6d 86 3e 71 6b 5c be
       -0.035197977 -1.8425218 0.26255393 -0.2152536
000120 12 bc 1f bf a1 63 55 bf 23 88 d5 be e7 d0 3d bf
       -0.6239635 -0.83355147 -0.41705427 -0.74146885
000130 37 05 da bf 27 be 29 be 21 bc 88 bf 80 e8 7e be
       -1.7032841 -0.16576444 -1.0682412 -0.24893379
000140 52 71 64 bf 87 06 36 be 96 64 e4 be 3e 7b 2b 3d
       -0.89235413 -0.17775927 -0.4460799 0.04186558
000150 64 d2 98 bf bf 8c d9 bd 67 33 54 bf 9e d4 2c bf
       -1.1939206 -0.10622548 -0.82890934 -0.6751193
000160 d8 f3 51 be 00 dd 26 bf 43 16 6e 3f f8 5e 47 be
       -0.20503175 -0.6518097 0.9300272 -0.19469821
000170 ea 09 f8 3e c1 d2 82 3e 0a c8 b4 be ee 5c 54 bf
       0.48445064 0.25551417 -0.35308868 -0.829543
000180 0a 7c 23 bf 94 7a 67 3f c3 fb d8 3e 90 61 77 bf
       -0.63861144 0.90421414 0.4237958 -0.96633244

weight f4 [100, 100]
000000 b0 25 91 3c c6 ee e2 bd cd a3 d7 bf 73 f9 2a bd
       0.017718166 -0.11080699 -1.6846863 -0.0417418
000010 52 c2 01 be 42 b3 c5 3d b0 ab 8b 3e f4 da 97 37
       -0.12671784 0.09653331 0.27279425 1.810256e-05
000020 8a 01 a5 bc 26 99 b9 bd f4 4f 5a be d4 59 7b 3e
       -0.020142335 -0.09062414 -0.21319562 0.24545985
000030 cf b7 80 be ca 21 7e 3e 8a 94 97 be 2d c3 12 c0
       -0.25140235 0.24817577 -0.29605514 -2.2931626
000040 2a 7b a1 bd f0 4c 75 be 48 46 fd bd 2f 25 73 be
       -0.0788482 -0.2395513 -0.12366921 -0.23744653
000050 86 ed 8f 3d 22 40 1d 3d cf 1f 0e 3f 6f 39 13 bd
       0.07027726 0.03839124 0.55517286 -0.035943445
000060 96 a0 d6 3f 0e 33 8b bd 3f 60 79 3e 8f 33 26 bd
       1.6767757 -0.06796847 0.24353121 -0.040576514
000070 75 e5 47 3e 08 95 5c be 46 01 7a bd ea 99 01 be
       0.19521125 -0.21541226 -0.06103637 -0.1265637
000080 04 94 7e bc 1e d8 a0 3d bb 56 27 bf 43 17 5a 3d
       -0.015538219 0.07853721 -0.65366715 0.05324484
000090 b4 6d ad 3e 61 4b ab be bc f1 a4 be 0a 2c 32 bf
       0.3387276 -0.33455947 -0.3221568 -0.6959845
0000a0 b8 7d a5 3d 09 e3 68 3d 3e 23 b8 be d5 69 9c 3e
       0.080806196 0.056857143 -0.35964388 0.30549493
0000b0 bc 1e 2c 3e 77 ff 2b bd bb a5 dd 3d f3 cd 39 3d
       0.16808599 -0.041991677 0.10822626 0.045362424
0000c0 c5 fe 5a bf e7 9e 9d 3f ce af 8d 3e e2 25 fe bd
       -0.85545 1.2314118 0.2767319 -0.12409569
0000d0 18 cf 20 be 6b 6c 22 bf dc 4c 45 3e 60 ac 15 40
       -0.15704 -0.6344668 0.19267601 2.338646
0000e0 22 c8 d7 bd 81 01 52 bd 23 15 b6 3d 62 df 1b be
       -0.10536219 -0.051270965 0.0889075 -0.15221933
0000f0 a1 c2 80 3c 6a 33 13 bf e5 a6 bd 3e 15 3f 52 be
       0.015717806 -0.57500327 0.37041393 -0.20531876
000100 da ae fb bc 7e fb dc bd 60 94 23 bd 93 44 1a 3f
       -0.030723024 -0.10790156 -0.039936423 0.60260886
000110 64 ea 42 bd 24 61 21 bd 6b 86 6b bd 6d bb 63 bc
       -0.047586814 -0.03939928 -0.057501238 -0.013899666
000120 53 54 b9 bc 4f 6d a4 bd b2 b8 7f be ab d9 97 bf
       -0.022623217 -0.080286615 -0.249728 -1.1863302
000130 2c 38 6a bf 90 f3 09 be bb 19 70 3f 3b f8 e9 bd
       -0.9149196 -0.13471818 0.9378926 -0.11424299
000140 87 a3 63 bf f0 d3 ea 3d 2d a2 49 3f 43 34 e8 3d
       -0.889214 0.11466205 0.78763086 0.11338093
000150 4e 93 54 3e 56 7e 56 3e 75 3f af bf bd b2 65 3f
       0.20759317 0.20946631 -1.369124 0.8972586
000160 42 5f 0c 3f 12 1c b3 3e f1 73 e9 bc be 27 46 bd
       0.5483285 0.34982353 -0.028497668 -0.048377745
000170 a6 b7 de 3d 83 b7 b9 bf b7 be e4 bd d2 10 8f c0
       0.10874872 -1.4509128 -0.111691885 -4.4708033
000180 2c f3 bb 3d 53 da d9 bc 7d e7 c3 bd b4 f7 1c bf
       0.09177241 -0.026593363 -0.09565637 -0.61315465
000190 d8 5a 5b bf 03 ca ff be 9c ea dc 3c 99 7e 0c 3e
       -0.8568549 -0.4995881 0.02696734 0.13720168
0001a0 c2 fd 66 bc fb b1 49 3e b3 42 00 bd 9a f5 7d 3c
       -0.0140985865 0.196968 -0.03131361 0.0155004505
0001b0 78 9c f5 bc 8d 76 85 3d e6 e0 da 3d 90 7b c9 3d
       -0.029981837 0.065167524 0.10687427 0.09838021
0001c0 66 bd 30 bd ef 42 c7 3d 44 81 9d 3c ed 30 65 3d
       -0.043149374 0.097295634 0.019226678 0.055954862
0001d0 06 cb 00 3f 87 81 ab 3b 93 cc 39 be 18 ec 3d 3d
       0.5030979 0.0052339467 -0.18144445 0.046367735
0001e0 bc 4d 6d 3d ac a6 f0 bd 52 a4 2c bd 44 bd 95 3c
       0.05793546 -0.1175054 -0.042148896 0.018278725
0001f0 00 ba 5e be e7 25 bf 3d 35 6f 81 be 78 fe 4d 3e
       -0.21750641 0.09333401 -0.25280157 0.20116603
000200 44 9c 4e bd 6f fe 25 3e a5 58 f6 3d 91 c8 9f bd
       -0.050441995 0.1621034 0.12028626 -0.07801927
000210 a1 e1 ca be d6 94 2b be 32 0d 14 be 1d a4 51 be
       -0.39625266 -0.16755995 -0.14458159 -0.2047276
000220 35 7f eb bd a7 cf 63 3c 9d dc 2f be 84 b7 0f 3e
       -0.11498872 0.013904489 -0.17174001 0.1403485
000230 c9 8b 52 3c 9a ba 3a be 60 68 f7 3d 77 49 12 be
       0.01285071 -0.18235245 0.12080455 -0.14285837
000240 e0 71 86 3e ba a5 97 3a 73 93 ba 3d c1 63 10 3e
       0.26258755 0.0011569776 0.09110155 0.14100553
000250 54 52 9d bd de 1d 15 3e 00 95 85 bd 00 f4 83 be
       -0.076817185 0.14562175 -0.0652256 -0.25772095
000260 c4 a2 bc 3e cd 3d 5f bd 50 e0 76 bc 03 5e 9d be
       0.3684293 -0.054502297 -0.015068129 -0.30735788
000270 10 80 53 3c 0e 9c 3f 3c 6a 83 22 3c 15 2d 87 bd
       0.01290895 0.011694921 0.009919027 -0.066003956
000280 c9 ac 10 3e f7 47 be 3d 76 6b d8 3c 8d 58 cb 3f
       0.14128412 0.0929107 0.026418429 1.5886399
000290 04 82 6e bd 8f fc 3f 3d e5 3e f6 be 74 c8 57 bc
       -0.05822946 0.046871718 -0.4809486 -0.01317035
0002a0 91 3e c3 3e 22 72 bd bc 67 be 89 3d 23 30 a6 3c
       0.38133672 -0.023125712 0.067257695 0.020286625
0002b0 78 71 51 be f1 ff 9b bd 8f 98 cf bd 8e 15 15 3e
       -0.20453441 -0.07617176 -0.1013652 0.14559004
0002c0 b7 3b 73 be 04 1c 7d be 99 0a 8e bd b5 cc c5 bd
       -0.23753248 -0.24717718 -0.06935615 -0.096581854
0002d0 2f 65 14 bc 91 cf ba bc a4 a8 38 be 7a 6e 01 3e
       -0.009057327 -0.022804054 -0.18033081 0.126398
0002e0 71 48 d9 bd da 78 ca 3e 05 13 33 bd 6a 87 61 bd
       -0.1060952 0.39545327 -0.04371931 -0.05506078
0002f0 59 9c 1c be 80 e9 62 3e 1c 4f 12 bf e5 3f 4c 3e
       -0.15294017 0.22159386 -0.5715196 0.19946249
000300 af ab 72 bf cd 7b 65 3d a7 24 92 bd e0 b1 11 3e
       -0.9479322 0.05602627 -0.07135897 0.1422801
000310 bb ca 84 bd c2 5c 34 3e 05 17 74 3e e6 31 1d bd
       -0.0648398 0.1761351 0.23836906 -0.038377665
000320 ca 40 3b 3f e4 3a 21 be a2 2f d5 3e f0 aa 84 3e
       0.73145735 -0.15745121 0.41637903 0.25911665
000330 f2 d3 dd 3d a6 de 88 3a 00 64 a4 bf 5b 72 c2 bd
       0.10831441 0.0010442331 -1.2843018 -0.09494468
000340 3a f7 b2 bc f2 3a 71 3d 4d 22 a6 bf 2c 24 86 3d
       -0.021846402 0.058894105 -1.2979218 0.06549868
000350 48 59 60 bd b0 0b 46 bd 9a 6f e8 bc a5 61 5a 40
       -0.054772645 -0.04835099 -0.028373528 3.4122097
000360 d1 dd d6 bd c7 4e 4b be f1 ae b7 3d 85 76 20 bd
       -0.10491527 -0.1985427 0.08968914 -0.03917553
000370 4f b7 75 3e 66 6c d3 bb b5 79 03 3f 64 00 cd bd
       0.23995708 -0.006452131 0.51357585 -0.1000984
000380 3e 23 89 3f 51 ef 8e 3d 61 28 28 be 57 73 26 be
       1.071388 0.0697924 -0.16421653 -0.16254936
000390 87 29 ef 3d 52 a0 53 3f e3 9f 8a 3f 4f f5 44 40
       0.116778426 0.82666504 1.0830044 3.0774724
0003a0 d5 db 16 3f 1c c7 2f be 8e 08 24 3e 99 dd 02 c0
       0.5892919 -0.17165798 0.16018888 -2.0447752
0003b0 55 1f bf 3e 72 97 89 bd 40 9d 3f 3d 6d 9b bb 3e
       0.37328592 -0.06718339 0.046780825 0.36642018
0003c0 47 7e 9b 3e e1 b9 c3 bf 67 7b b3 3d 17 2c 6e c0
       0.3036978 -1.5291101 0.087637715 -3.721441
0003d0 c8 f1 9d 3d bb 79 14 3c 91 e9 7a 3d c9 9b 27 bd
       0.07712132 0.009062226 0.061257903 -0.040920053
0003e0 29 d4 08 3f 4d 44 95 be 01 9f 9d be 0e 0f c6 3e
       0.5344873 -0.29153672 -0.30785373 0.3868336
0003f0 f8 a4 47 bf 38 a5 02 3e c0 c9 23 bf 16 de 89 bf
       -0.779861 0.12758338 -0.6397972 -1.07709

bias f4 [100]
000000 38 33 a9 be ae 4a 7c bc 28 20 65 be f9 28 9f 3e
       -0.3304689 -0.015398664 -0.22375548 0.31085947
000010 92 6a 0f bf 2a 0f 84 be 30 db c5 be 83 ce b5 3e
       -0.5602199 -0.2579282 -0.3864379 0.35509118
000020 20 00 9a be b6 13 f9 3d 0f 47 8b 3c 0a 26 0a bf
       -0.3007822 0.12161963 0.017001657 -0.53964293
000030 70 70 5b bf eb dc ce be f4 42 c8 3c 0e 44 7d 3d
       -0.8571844 -0.40402922 0.024445988 0.06183248
000040 17 c6 20 be 8a 40 1f bf 23 78 1e be a6 c8 16 bd
       -0.15700565 -0.62207854 -0.15475516 -0.036812447
000050 4d 97 50 bf 5d f5 b5 3e d8 5f 61 be 53 31 21 bf
       -0.81480867 0.3553876 -0.22009218 -0.6296589
000060 0c 53 ac be df af d2 bf 07 07 26 be 1c 97 bc 3e
       -0.3365711 -1.6459922 -0.16213618 0.36834037
000070 b7 c2 7a bf 6e 77 d0 be bd 0e d3 be 22 48 4f 3f
       -0.9795336 -0.40716118 -0.41222182 0.8096944
000080 bf e6 b5 bd 88 97 57 bf 11 f9 84 bf c0 d0 d8 bf
       -0.08881902 -0.84215593 -1.0388509 -1.6938705
000090 5e b0 89 bf b6 0d 96 be ce f1 e9 3e 6a a2 5f 3c
       -1.0756948 -0.29307336 0.45692295 0.013649562
0000a0 2a b4 31 be b1 88 2a 3f fc 69 bc bf 81 69 8b be
       -0.17353883 0.66614825 -1.4719844 -0.2722893
0000b0 f3 a9 0f 3f 3f 8e 46 bf ef 09 95 be d0 b6 be 39
       0.56118697 -0.775608 -0.2910914 0.0003637583
0000c0 50 9b ea bf 51 1c 1b 3d 28 9f 2a 3d 27 fb 8e bf
       -1.8328648 0.0378688 0.04165569 -1.1170396
0000d0 3b 5d 12 bf fb a2 43 3e ff d3 40 be ac 25 b4 be
       -0.5717351 0.19105141 -0.1883087 -0.3518499
0000e0 cb 92 92 3e 4b 76 cf be e5 15 84 3f ed f4 9f bc
       0.2862762 -0.40519938 1.0319182 -0.01952597
0000f0 8e 69 6a be 9c 7e 5e bf ba b3 4d bf c7 4a b6 3d
       -0.22891828 -0.8691194 -0.80352366 0.089009814
000100 79 27 ab be 20 dd 21 bf a1 f6 4b be d6 9e 80 be
       -0.33428553 -0.63228035 -0.199183 -0.25121182
000110 21 bf 37 be 6d 0e b5 bd ad 38 46 3e 67 ee fd be
       -0.17944004 -0.08840642 0.19357558 -0.4959595
000120 d6 ed 21 bf 6e 12 44 bf a1 74 b4 3c de f8 b0 be
       -0.63253534 -0.7659062 0.02202827 -0.3456487
000130 f0 8b 6f 3f 89 be da be 5c fd c6 be 06 63 e9 3d
       0.935729 -0.42723492 -0.38865173 0.1139584
000140 d8 91 90 bf 2a 6d 04 3f 11 76 73 bf 88 f7 7e 3b
       -1.1294508 0.5172907 -0.9510203 0.0038904864
000150 82 a1 0f bf e5 bb 7d bf 22 d5 b2 3e 21 43 18 bf
       -0.56105816 -0.9911483 0.34928232 -0.5947743
000160 c7 c5 93 bf 30 12 1a be fd 96 a7 bf 25 43 aa 3e
       -1.1544732 -0.15046 -1.3092953 0.33254352
000170 2c e5 a4 bf 3e bc 2d bd fb 4c 6d be 70 6e 01 3f
       -1.2882438 -0.04241585 -0.23173897 0.5055914
000180 4a 02 f4 be d2 05 d9 be bc 70 ce bf 0a 67 ae 3e
       -0.47657996 -0.42387253 -1.6128154 0.34062988

weight f4 [1, 100]
000000 ba 47 00 bc f7 1a c1 bc ce 07 38 3c 7f da 07 bb
       -0.007829601 -0.023572428 0.0112323295 -0.00207296
000010 58 b0 97 bd 3c 6a e4 bd ab 2c 2a bb cc 39 37 bc
       -0.07406682 -0.11153075 -0.0025966566 -0.011183213
000020 1f 4d a1 3c 49 44 5b 3d 98 fa 10 3d 5b 88 f7 bb
       0.019690095 0.05353192 0.035395235 -0.0075540966
000030 eb f0 0d 3c 3a 0f b8 bd f2 8a 3d 3d 60 0a 68 3c
       0.008663396 -0.08987279 0.046275087 0.01416263
000040 a1 68 d9 3c 17 76 25 bd 58 69 21 3d c3 78 05 bd
       0.026539149 -0.040395822 0.039407104 -0.03258587
000050 13 d3 a1 3c 64 fd 17 3d 27 b7 30 3c e5 bb ba bc
       0.019753968 0.037106887 0.010785854 -0.022794673
000060 ac 41 15 3c 81 dc d6 3c be dd 50 3d ef 08 eb bb
       0.009109896 0.026228191 0.05099272 -0.007172696
000070 2a 18 2e bc 21 91 a7 3c 59 07 96 bc 86 bd 1f 3c
       -0.010625878 0.020454945 -0.01831405 0.009749776
000080 98 21 b1 37 ab 72 48 bd 47 06 a5 bc 9b 7c 77 3b
       2.1115688e-05 -0.04893748 -0.020144595 0.003776348
000090 98 88 55 b9 c3 1f 3b bc 88 53 69 bd 17 64 d2 bc
       -0.00020364148 -0.011421147 -0.056964427 -0.025682492
0000a0 fb 26 30 3c f0 47 ce bd 7c a4 1c 3c 4f 85 32 3d
       0.010751481 -0.10072315 0.0095607005 0.043584164
0000b0 fd 2c 5d 3c 23 88 b2 bb 16 34 81 3c 33 db 2d bc
       0.013499496 -0.0054483577 0.015771907 -0.010611343
0000c0 d0 de 63 bd 8a 04 14 bd b5 07 92 bc 69 21 f5 bc
       -0.055632412 -0.03613714 -0.01782594 -0.029923158
0000d0 70 3f 80 39 5a 76 2a 3d 57 13 0d ba 45 32 24 be
       0.00024461327 0.041616775 -0.0005381605 -0.16034801
0000e0 54 dc 3e 3d 54 0b 8c 3d 4b df 02 3d ff 7f d8 bc
       0.04659684 0.06838098 0.03195123 -0.02642822
0000f0 1a 04 cf 3a 1b f6 d3 bb c6 b4 f4 3b 97 b8 51 3d
       0.0015794069 -0.006468547 0.007467839 0.05120143
000100 12 fb ac 3c 4d d8 01 bc eb 08 1b bd 2d 2e ad 3d
       0.021115813 -0.007925105 -0.0378503 0.08456073
000110 44 74 bf bc 7b fe f1 bc 66 1c 59 3d 9f 35 1a 3d
       -0.02337087 -0.029540291 0.0530056 0.037648793
000120 9b 28 06 bc 77 86 e8 bc 42 07 07 3d 13 3f 3d bd
       -0.008188392 -0.02838443 0.032965906 -0.04620273
000130 5d a7 7a 3b 0b 5f 46 bb f3 99 97 bd bc eb 6e 3c
       0.003824673 -0.0030269052 -0.0740241 0.014582571
000140 7b f1 76 bc 79 95 36 3d dc 51 cd ba 65 75 66 bc
       -0.015072222 0.044576142 -0.0015664655 -0.014066075
000150 28 9d 48 bd d6 2b 08 be 31 07 d1 bc 55 85 3c bc
       -0.048978 -0.13297972 -0.025516124 -0.011506398
000160 5b ae 8d 3c bf 6e 81 3d e2 74 77 bd 81 fb fb bb
       0.017295053 0.06319951 -0.060414203 -0.0076898937
000170 48 f2 cf bb 15 a9 04 3e ad 89 2b be f5 be 13 3b
       -0.006346021 0.12955125 -0.16751738 0.002254424
000180 ae dc 0a bd cf ae 68 bd f0 67 88 3c 2f d0 90 bd
       -0.033901863 -0.056807335 0.016651124 -0.07070958
