include/PlasticModel/Models_lv/Yld2004-18p_dfdsig_NN.pth (torch, 190363 bytes, 8 tensors)

weight f4 [150, 5]
00000000: a733 acbe a99e 1a3d 3e59 4dbc d225 4dbd
00000010: 86ad d4bd 4d76 1bbd 833b b6bd 5b75 043e
00000020: b930 9d3c f9fc 22bd a370 5b3b 569d babd
00000030: 4aba ec3f a8f2 8fbe 6f74 a33c c191 29be
00000040: 946f 51bf 7747 8e3e f32a b7be adf3 17bf
00000050: 0c6e bb3d 985c 96be 110a 4fbf ec57 b4be
00000060: 3b81 a53d e9ea 9dbd 22ba 8abd 4ce0 433d
00000070: 89fc b2bd b6fd 86bc 0280 08bf ac17 42bf
00000080: 02ea f9be 0c16 c9be 9b5b f9bf f644 193c
00000090: 5b9c 4b3c bf95 a4bb 62cf 9dbe e1a7 353f
000000a0: 2554 1abf 0838 40be b479 fabd 35cf 38be
000000b0: 8822 55be f765 b4bd ed59 42bd fef5 443d
000000c0: abd7 923d d6d1 6cbc acb5 c23d 6731 3dbe
000000d0: d29f 6bbe a462 67be 7717 4bbe 0f6c 35be
000000e0: b2a7 7bbe 1057 813d cac3 9ebd 983c eb3d
000000f0: beeb 143e 12f2 873c 319e 9bbd 47cf 043e
00000100: c3be eebc 6052 12bf b6a2 adbe 2f45 1cbf
00000110: b377 62be 270c 7c3e 59b8 d3be c06c 523d
00000120: 7191 a1bd 9119 0bbe 5d07 293d 619d edbc
00000130: 075f 3dbc 2ab5 cebb 95b2 c2be 5fb4 cebd
00000140: 4efd 1b3c dad9 423e 7f02 6cbe efda 8fbe
00000150: ed9f 2a3d e14d 36be c931 3d3d cd61 143f
00000160: 99d8 973e 0508 b43e c968 a53d 095e 27bc
00000170: 1ff3 43be 2495 0cbe 8d8a 1b3e 57f9 3a3c
00000180: 943d e5bc 09d3 71bd 4185 a73b 338b 1b3e
00000190: bf4d 1c3c 21ae 45c0 3cc9 123a 716e 103e
000001a0: 4e14 e138 1710 cabc d3e2 29be 92c8 9ebc
000001b0: aafe 21be 71c6 573d 4342 50bc 0743 a93e
000001c0: 56a5 b83e 279c 1d3e 8521 8ebf 49c2 b63d
000001d0: 660f bb3e 0fdb 4fbf ba1f c93e c41a 0abf
000001e0: efcc 47be 7fad d0be c4ea bbbf 4d82 95bf
000001f0: 43da e6be e03c 1dbe c121 c63c 6402 583e
00000200: be3c 123e 1799 1abe 1f96 fcbe 9d88 88bc
00000210: e1b2 e9bf f4bf f23d e3c4 82bf cf9c 913d
00000220: 8aa6 e1bc cf66 6fbd 58cc 28be 60a6 01be
00000230: 2217 fd3b 23cc 5d3d 97ad 623f 1e7f 553e
00000240: 49ac e23e 312e 863d 8f31 a5be 1838 f4be
00000250: 9107 f1be c08a 33be 2ea1 74bd 9ea8 8ebd
00000260: 6385 903c 8bd5 053e 91ff d6bc a18f 88bb
00000270: 2190 0e3d 3e1b 26c1 044c 4d3c cfbf 48bd
00000280: 63fe 0b3d b2a6 c9bd 7dde 2fbd 9df6 073e
00000290: 33bf 95bc 67fe 96bf 4236 5dbf 7ad1 cdbf
000002a0: a357 73bf 4305 66bf 0b35 b0be 9c57 2bbf
000002b0: 1a8d a8bd febe e33c 045b b9bd 0208 e1bc
000002c0: e243 49be 2ae0 8b3a f141 93bf ed22 38bc
000002d0: 62b9 b1be bc87 91bc 6170 b2bd b038 863c
000002e0: d495 14be 99fe ff3a 447f a1bf d7dc 693b
000002f0: 465d 8fbe 2882 5d3f 0d9c b1bd ce51 9fc0
00000300: cc95 7dbf fbe3 3ac0 670f c0bf fce4 63bc
00000310: 2b73 a43d 91dc 00bd 556c 3f3c b769 f8bd
00000320: ffe2 20be f024 79bc 093a 17bf c9ec a6bb
00000330: 7dca 5abc e613 3fbf 497d 84be 801a 413e
00000340: e83d 21bf 704a 22c0 0540 88be 1156 6a3d
00000350: 6ea7 3abe 7cb3 debd 7099 5cbe 043c 523c
00000360: 9393 aebf 9c04 803b 01f9 a8be dcb6 0dba
00000370: 67dc 24be e9ef cfbd b708 50c0 190f 86bd
00000380: a1c0 eabd 9c4d 6cbf 49d0 e8be 5cad 6bbf
00000390: 826a 9dc0 b02e a2bf af3f 11bf cd88 b0bf
000003a0: df4f aebe e16c 0f3f ca9c 6dbe d125 703b
000003b0: b842 1ebe e29b 5d3f 1443 cebe 6662 d43a
000003c0: feec 1b3b 7de7 a1bf bb7e f83a ab67 8dbe
000003d0: 2217 5fbf f387 6c3d f8ed 383e 1c67 f8be
000003e0: 4e69 133c 78fd 9dbe 9505 e13c b58f 033c
000003f0: 7c06 33be 81f4 28bd 4fa3 cdbc 5a79 1fbe
-0.33633158 0.037748966 -0.012533484 -0.050084896 -0.103846595 -0.037954617 -0.0889807 0.12935393
0.019188272 -0.039792035 0.0033483885 -0.09112041 1.8494351 -0.2811482 0.01995298 -0.16559507
-0.8181088 0.27788898 -0.35774955 -0.59356195 0.09151849 -0.29367518 -0.80874735 -0.3522333
0.080812894 -0.07710821 -0.06773783 0.047821328 -0.087395735 -0.0164784 -0.53320324 -0.7581737
-0.48811346 -0.39274633 -1.9481081 0.0093548205 0.012427415 -0.005022734 -0.30822283 0.7095929
-0.60284644 -0.18771374 -0.12230244 -0.18047793 -0.20813954 -0.08808511 -0.04744904 0.04808616
0.07170042 -0.014454326 0.095073074 -0.18475877 -0.23010185 -0.22596222 -0.1983317 -0.17717002
-0.2457569 0.06315434 -0.077521876 0.11486167 0.14543054 0.01659492 -0.07598532 0.12969695
-0.029143697 -0.57156944 -0.339132 -0.61043066 -0.22115974 0.24614011 -0.41351584 0.051373243
-0.07889069 -0.13583972 0.041266788 -0.029005708 -0.011558301 -0.0063082175 -0.38026872 -0.10092997
0.009520842 0.19028416 -0.23047827 -0.2809672 0.041656423 -0.17803146 0.046190057 0.5796173
0.29657438 0.35162368 0.08076627 -0.010215291 -0.19135712 -0.13728768 0.15189572 0.011411986
-0.027983464 -0.05903915 0.0051123207 0.15189819 0.0095400205 -3.088753 0.0005599444 0.1410463
0.00010732618 -0.024665875 -0.16590433 -0.019382749 -0.15819803 0.052679483 -0.0127111105 0.3305895
0.3606364 0.15391599 -1.1103979 0.08923776 0.36535186 -0.8119363 0.39282018 -0.5394709
-0.1951177 -0.40757367 -1.468102 -1.168039 -0.45088395 -0.15355253 0.024186017 0.21094662
0.14280984 -0.15097462 -0.49333283 -0.016666705 -1.8257715 0.118530184 -1.0216335 0.07109987
-0.027545232 -0.058447655 -0.16484201 -0.12661123 0.007723705 0.054149758 0.8854613 0.20849273
0.44272068 0.06551779 -0.32264373 -0.47699046 -0.47076085 -0.17533398 -0.059724025 -0.06965755
0.017641729 0.13069741 -0.02624491 -0.0041675125 0.03480542 -10.381651 0.012530331 -0.049011048
0.03417815 -0.09846248 -0.04293679 0.13277669 -0.018279647 -1.1796387 -0.86410916 -1.6079552
-0.950556 -0.8985178 -0.3441547 -0.66930556 -0.08230038 0.027801033 -0.09050563 -0.027469639
-0.19654801 0.0010671664 -1.1504499 -0.011238796 -0.34711748 -0.017764919 -0.08712841 0.016384453
-0.1451028 0.0019530832 -1.2616963 0.003568461 -0.2800085 0.8652673 -0.086723424 -4.978736
-0.99056697 -2.9201648 -1.50047 -0.013909575 0.08029779 -0.03146035 0.011683543 -0.121295385
-0.15711592 -0.0152065605 -0.5907293 -0.005094145 -0.013353941 -0.7463974 -0.25876835 0.18857765
-0.62985086 -2.5357933 -0.26611343 0.057210986 -0.18227932 -0.10874078 -0.21542907 0.012831692
-1.3638786 0.0039067995 -0.33002475 -0.00054059713 -0.16099702 -0.10153181 -3.250532 -0.065458484
-0.11462522 -0.9230592 -0.4547141 -0.920614 -4.9192514 -1.2670498 -0.567378 -1.3791748
-0.34045312 0.5602551 -0.23204342 0.0036643634 -0.15455139 0.86565983 -0.40285552 0.0016203641
0.0023792381 -1.264877 0.0018958667 -0.27618155 -0.8714467 0.05774684 0.18059528 -0.48516166
0.008997275 -0.30857444 0.027468482 0.008029868 -0.17482942 -0.041248802 -0.025102286 -0.15573636

bias f4 [150]
00000000: bb42 4dbe e643 c2be d0b7 7ebf a461 fcbe
00000010: 33a6 34be df19 aebe 1f2f 603e 4a28 ad3c
00000020: 4d81 d2bd 870f 30be 7434 84be 4f30 a2be
00000030: 540f c4be bae5 79be bcf9 a8bd e270 903a
00000040: ef08 82be bcf5 a5bf 6cbd acbe 7340 63be
00000050: 4b43 a33f 94a6 afbe 1372 58bf 34e6 58bf
00000060: 2160 c03b 79d2 dcbe d703 00bf bac3 9abe
00000070: 53ca 09bf 0b40 5abe 7e89 acbe c407 f03e
00000080: 2ddd 8dbe d3e5 2a3c 5a06 a8bd bc0e 223f
00000090: c1b3 2abd 2cfc d0bc 6c95 03be 950f dabd
000000a0: a82f cdbe 6105 3ebe e386 8bbd 9405 7f3f
000000b0: 6fc1 0f3c e251 01be d888 1abf eb9b 8f3d
000000c0: 6839 593f 6640 7abe 8f53 2fbe 8b07 0fbe
000000d0: bae5 ddbe ae6e 4a3f 58c9 85bd 9163 cdbe
000000e0: 3a7b 1a3f fc9c 82bd 305e 1dbe 8b6c 3fbe
000000f0: c4e0 4dbe 6bbd 9e3e 77f6 ebbd f668 afbe
00000100: 9913 0bbe 22b1 dbbe c068 babe c68f c4be
00000110: eb0f 11be e998 7e3f 3479 78bd 7c12 89be
00000120: 73d4 a5be cdea fbbd e97d 97be fd9e 37bf
00000130: 7893 bebe 58d1 2dbd a562 883e e9f8 cfbd
00000140: 8c6c 85be 46cc 9cbc dbfe 7e3f 9def 42be
00000150: dd1a b93b c99a a8bd 58ab 63be dd46 4abe
00000160: 3f3e b6bf 9553 9dbe cc91 b2be 41ed 0fbd
00000170: 2614 47bc fd99 843f a150 92bf 2c94 07bf
00000180: 2a00 b2be dbc9 6abd 49ba 07bf 28af 8abe
00000190: 9654 ff3e 43ee a2be fefe 6bbe 4e03 cabe
000001a0: 98c1 3a3f 0a4f 0ebe d2af 55be 9fbb d1bd
000001b0: 35be 30be 32ec 253b 5199 2cbe 41f8 4cbd
000001c0: ec3f afbe 9930 6fbd cb05 b0be 297c 30be
000001d0: 7435 49be b646 33be 786b e6be a20f 16ba
000001e0: afa5 68be bd0a afbe 5e7e 9abc f9a5 9fbe
000001f0: dfbc e5bc 848b a3be ac28 b6be cbb2 48bc
00000200: 2877 2f3f b466 ebbe 5e4c 023f 705a 9cbe
00000210: 0a5a d7be beac 3abe e4f3 2bbe 50cc 2c3f
00000220: 658a bcbe d3bf 10bd a321 adbf bc44 383f
00000230: fdd8 8abe 64c2 1bbe 54b4 a9be c4f3 a2be
00000240: afdf 98be 19dd 43be d4ba c2be f685 11bb
00000250: 9419 66be e779 7abe
-0.20044987 -0.37942427 -0.99499226 -0.49293244 -0.17641525 -0.34004113 0.21892975 0.021137375
-0.102785684 -0.17193423 -0.2582127 -0.31677482 -0.38292944 -0.2440404 -0.08250758 0.001101997
-0.2539744 -1.2965617 -0.33738267 -0.22192554 1.2754911 -0.34306777 -0.84549063 -0.8472626
0.0058708345 -0.43129328 -0.5000586 -0.30227453 -0.5382435 -0.21313493 -0.33698648 0.46880925
-0.27707806 0.010430771 -0.082043365 0.6330373 -0.041675333 -0.02551087 -0.12849969 -0.10647503
-0.4007542 -0.1855674 -0.06812837 0.99617887 0.0087741455 -0.12628892 -0.60365057 0.07012161
0.8485322 -0.24438629 -0.17121719 -0.13967721 -0.4333933 0.79075134 -0.06532544 -0.40115026
0.6034428 -0.06377599 -0.15367961 -0.1869375 -0.20105273 0.3100389 -0.11521619 -0.34259766
-0.13581695 -0.4290858 -0.36408043 -0.3839094 -0.14166228 0.9945207 -0.060662463 -0.26771915
-0.32388648 -0.12300644 -0.2958825 -0.7172697 -0.37221885 -0.042435974 0.2663776 -0.10154898
-0.26059377 -0.019140374 0.9960763 -0.19036718 0.0056489543 -0.08232648 -0.22233331 -0.19753595
-1.4237746 -0.3072783 -0.3487686 -0.035138372 -0.0121508 1.0359493 -1.1430856 -0.5296047
-0.3476575 -0.05732141 -0.53018624 -0.2708676 0.4986922 -0.31822404 -0.2304649 -0.39455646
0.7295165 -0.13897339 -0.20867851 -0.10240864 -0.17260058 0.0025317785 -0.1685536 -0.05004144
-0.34228456 -0.058395956 -0.3437942 -0.17234863 -0.19649297 -0.17507443 -0.45003867 -0.00057243754
-0.22719453 -0.3418788 -0.018859085 -0.31181315 -0.028044162 -0.3194238 -0.35577905 -0.012249659
0.68541193 -0.45976794 0.5089778 -0.30537748 -0.42060882 -0.18229958 -0.16792256 0.67499256
-0.36824337 -0.035339188 -1.352589 0.7197988 -0.27118674 -0.15210873 -0.33145392 -0.31826603
-0.29858157 -0.19127311 -0.38033164 -0.002220509 -0.22470695 -0.24460565

weight f4 [150, 150]
00000000: 9d62 b4bd 4959 873d 926f 0f3d 769d 02be
00000010: 0cdf 0dbe 9250 383d 71c2 d7bd 5d78 8abe
00000020: 7aef b1bd 1699 c9bc 768b e1bd 2c4f e1bd
00000030: 9d1e 45bb 52c1 0dbe 772a 48be e236 54be
00000040: 9c00 61be 2880 95be 692d 7c3d 18a7 053e
00000050: 857f 923c 6c8b ccbd a66b 05be 7a3f 85be
00000060: c4c1 16be 6548 e43c 4e92 c2bd f50c c5bd
00000070: a300 a4bc 6049 723c ed89 4cbd 57b5 14bc
00000080: 6bf9 8f3d be2a d8bd 17b6 44be 11af 663d
00000090: 443b 0bbd 3b6f 2abe b3f9 6d3d 4d35 183d
000000a0: d7bd 823d 74b5 94be 15be bbbd 6b84 753d
000000b0: 64ed d0bd a7ab 85bd 7149 16be 5f38 bbbe
000000c0: 04d1 a8bd 1cb4 e0bd f13c 3f3e 3765 c2bc
000000d0: 8084 933c 33dc 03be d938 cd3d 89e5 a5bd
000000e0: a0ec 79be 37aa fbbd e535 943d eaca a0bc
000000f0: 2e33 693d 5061 5abe f61e bf3c 6f6d 153e
00000100: 24bc e6bd 4712 db3c e317 5d3d 5a00 95bd
00000110: d665 0e3c 1a5f 003c 01aa 7bbd fe3e 54bd
00000120: 8b0f 5cbe 3b0a c93d a14e 97bd ba80 d0bd
00000130: cd5b 533d 66fd 24bd 0c52 89bd c09e 533d
00000140: 27de 0ebe add6 52bd 818e 483d 968e c03d
00000150: 329a 42bc 2ce3 283e 5f75 a3be 0ef9 4bbd
00000160: 5c84 d0bd 1ba7 bb3d 59e8 70bd 2804 b43d
00000170: 0da9 383d 74dd e6bc 6825 9c3d 82c4 743d
00000180: c153 ecbd 70a1 bebe cac5 09be b666 2dbd
00000190: 9391 88be d97a ee3d 5d0e f33c ba13 463d
000001a0: 4473 f2bd b7ed 6abe 2af2 a93d 0082 21be
000001b0: b01c 2c3d 93ab 47be f960 29be ce58 e6bd
000001c0: 3d52 28be 8311 a8bd 063b 2bbd 9506 a7bc
000001d0: 0c7b 2ebe 077d 91be 0a42 ca3d 6f88 a23b
000001e0: 96cc c43d 1c14 d53c a20c 2cbd dd61 99bd
000001f0: 3b24 4dbd ed26 b73d 6353 03bd 0d97 0dbe
00000200: 3003 a6bd 0168 54be 8f83 3d3c 837f 1b3d
00000210: b85c 0ebd 500d 15bd 653a 1e3e 0b52 75be
00000220: 6439 3cbe fa96 623d 556f 743d 223e cc3c
00000230: 1c6f 9fbe 60c7 4dbd e763 31bc ff9c c23c
00000240: 4181 163d cc20 0c3b da75 4c3d b8d2 48be
00000250: 2245 28bd d41a 1c3d cd47 b1bc 7a98 093d
00000260: 78e0 363f c41a 3cbf 6253 7a3e 4751 f4bc
00000270: 639b 403f 8e59 5cbf 27f9 38be 7a77 7f3d
00000280: e2e4 ddbd 4f0b e9bc 41c9 3dbd 0985 f83e
00000290: 1d2e f93c 5e81 56bd 8167 143e 9aff 6fbe
000002a0: c8b9 49be ac33 813d 9efc 1cc0 2e90 8c3c
000002b0: fa53 973e e510 2abe 745b ba3e f93d 65bd
000002c0: 02c8 0b3f dd17 f639 ffcf 64bb 83e5 47be
000002d0: 5555 063e 82af 9ebf 08e0 ba3d 5fa1 193f
000002e0: d27c 17be 0807 4bbf 2ab0 89bd 8899 cbbf
000002f0: 1ada 94bf d3ae be3d bcf8 103f 1800 22bf
00000300: 13a6 c7bd de05 95c1 a527 aebf 5438 4dbf
00000310: 9ae2 b6bf dbc2 fcbe 7589 c8bf 3fcf 06be
00000320: cb26 1c3c c768 16be 8aee 9abb 46ca c53b
00000330: 33e7 243e d730 1e3b 1143 393f 6a93 c93d
00000340: cb46 023b 795c e83d 3a91 393e e02a b1bf
00000350: 22e7 333e c328 fabd 385e dfbd 3272 aa3d
00000360: 394e c4bc 83cd abbd d926 3abe 161c 463f
00000370: 04ae 59be b746 1a3e 323e 8abf cb42 7c3d
00000380: 0cc9 56bc 4c7a 1b3d fbe7 aa3d 593f 2ebe
00000390: 3006 b440 9f3a 19be a7ff d4bb 9b64 a3be
000003a0: 6769 0841 aaff c73d 8846 85bd 2395 2bbb
000003b0: e744 73bf 7323 913c c743 6d3f 81bf ef3c
000003c0: 0fe8 0ebe d308 c43e 883b a5bf 9711 27bf
000003d0: f8aa 82c0 b46e 0bbf d754 ef3d 4bb6 873e
000003e0: fa65 b63e c6ea 04be 8ddf 38bf bf17 aa3e
000003f0: 0235 bd3d 8c1e 043e 746f 3f3e f647 8dbe
-0.088078715 0.06608827 0.03501851 -0.12755379 -0.13854617 0.044998713 -0.10535134 -0.27044955
-0.08688255 -0.02460913 -0.11012928 -0.11001429 -0.0030078061 -0.13843277 -0.19547449 -0.20724061
-0.21972889 -0.29199338 0.061566744 0.13052022 0.017883072 -0.0998753 -0.13029346 -0.2602499
-0.14722353 0.027866552 -0.09500562 -0.09621612 -0.020019835 0.014788002 -0.049936224 -0.009076438
0.070299946 -0.105550274 -0.19210087 0.0563193 -0.033992067 -0.16643994 0.05809946 0.037160207
0.06383865 -0.29044688 -0.09167115 0.059940737 -0.10201529 -0.06526881 -0.14676453 -0.36566445
-0.082429916 -0.10971853 0.18675591 -0.023729904 0.018007517 -0.12876968 0.100206085 -0.08100421
-0.24406672 -0.12288325 0.07236842 -0.019628007 0.056933574 -0.21326184 0.023330193 0.14592527
-0.11266354 0.026742114 0.05397786 -0.07275458 0.008691272 0.007835174 -0.061441425 -0.051817887
-0.21490304 0.098164044 -0.07388044 -0.10180803 0.05160122 -0.040280722 -0.06705102 0.051665068
-0.13951932 -0.051474262 0.048964027 0.09402196 -0.011877583 0.16492909 -0.31925485 -0.049798064
-0.101814955 0.09162732 -0.058815334 0.08789855 0.045083094 -0.028181769 0.07624322 0.059757717
-0.11539412 -0.37232542 -0.13454357 -0.04233428 -0.26673564 0.11644525 0.029669935 0.048358656
-0.118383914 -0.22942244 0.08298142 -0.15772247 0.042019546 -0.19499044 -0.16540898 -0.11247407
-0.16437621 -0.08206465 -0.041804336 -0.02038888 -0.17039126 -0.284157 0.09875877 0.004960112
0.09609334 0.026010565 -0.042004235 -0.07489369 -0.05008338 0.089429714 -0.032061946 -0.13827153
-0.08106077 -0.207428 0.011567011 0.0379634 -0.034756392 -0.03638965 0.15451963 -0.23957078
-0.18381268 0.055319764 0.059676487 0.024931971 -0.31139457 -0.050238967 -0.010827041 0.023756502
0.03674436 0.0021381853 0.04991708 -0.19611633 -0.041081555 0.038111523 -0.021640683 0.03359268
0.7143626 -0.7347834 0.2444587 -0.029823912 0.752371 -0.8607415 -0.18063794 0.0623698
-0.108346716 -0.028447775 -0.04633451 0.48538998 0.030417496 -0.052369468 0.14492609 -0.23437348
-0.19699776 0.06308684 -2.4529185 0.017158594 0.29556257 -0.16608007 0.36397898 -0.055967305
0.5460206 0.00046938556 -0.0034914014 -0.19521146 0.13118489 -1.2397311 0.09124762 0.6001186
-0.14793709 -0.79307604 -0.06723054 -1.5906229 -1.1629059 0.09310689 0.5662954 -0.63281393
-0.09748473 -18.627865 -1.3605849 -0.80164075 -1.4287903 -0.49367413 -1.5666949 -0.13164996
0.009530733 -0.14688407 -0.004728143 0.0060360758 0.1610382 0.0024137998 0.7236796 0.0984257
0.0019878622 0.11345763 0.18121806 -1.384121 0.17568639 -0.12214806 -0.10906643 0.08322562
-0.02396308 -0.083888076 -0.18178882 0.77386606 -0.21257788 0.15066038 -1.080023 0.061587136
-0.013109457 0.03795843 0.08345028 -0.17016353 5.6257553 -0.14963768 -0.0065002027 -0.31912693
8.525733 0.09765561 -0.065075934 -0.0026181422 -0.9502701 0.017717099 0.92681545 0.02926612
-0.13955711 0.38287982 -1.2908792 -0.65261215 -4.08337 -0.54465795 0.11686104 0.26506266
0.35624677 -0.12980184 -0.7221611 0.33221242 0.09238626 0.12902278 0.1869486 -0.27593964

bias f4 [150]
00000000: 13b9 39be 2f70 b7be 38fc 61bf 1a47 f4bc
00000010: 83e2 e6be 0ad6 37bf 924a 15bf 0e90 07bd
00000020: 1fa6 0ebe fb76 9bbe 3f34 8fbe b90f 2bbe
00000030: 4b59 8ebe 991e 09be 5ca7 463f c44d 50be
00000040: 226a 11bf 3c49 823e 034d efbe 365e aabe
00000050: 199c 0d3e df42 48be e772 a9be 65b7 afbe
00000060: 0260 33be e6ee f2bc 55c7 28be f37b 2cbf
00000070: 870a 033f 563c 9abe c3d9 95be 064a 5ebe
00000080: f341 a4be dfe8 1ebf 021a adbe 9040 4ec0
00000090: e325 bebc ed49 d8be 53b6 34bf 2ad2 7bbe
000000a0: 47a2 0bbe be4c c3bd eade a1be b867 053f
000000b0: f111 7ebf c34a 23bf 7d01 f5be 8aa1 05bf
000000c0: 5579 09bd 76e7 89bd 79a7 0bbf 961d 98be
000000d0: 96a3 a6be 7bc2 a6be 5dbf 11bf 93cf 0abf
000000e0: bc99 cdbe 1af1 d0c0 83e6 31be 471b abbf
000000f0: d40a 86be 8b31 88be f8f3 92be d226 9abe
00000100: 21c8 ac3e 1f4f ecbe 4e4c bfbe 9325 e6bd
00000110: 9ef9 b5bd 4d6e 563f b3b9 dfbe 34a6 043e
00000120: c989 1abf 1818 e9be 6429 2bc0 6a40 54bf
00000130: 2d64 c1be 33eb e3be 5dd1 d2be b14b 15bf
00000140: 1d3d a13f d284 cb3f 1447 353f 7fb3 26be
00000150: 04ff 703f c325 a3be 3b3e 42bf 12b8 883f
00000160: 2bc1 443d 52c9 d93d a14c 74be 9218 6ebd
00000170: 4565 95be b8d5 a0be 2fcc afbe 38dd 0abf
00000180: 2c2d 80be d969 e9be 6a48 8bbe f997 22be
00000190: a9c3 febe 13d4 3cbe 3eb2 8dbf c3f2 cf3e
000001a0: 1fcb d8be a9de 3abe 0c58 4ebe f8b7 7f3f
000001b0: 2e85 edbe ccc9 d43f b068 debe e4ec 2fbc
000001c0: 3aa6 3b3f 00c7 a5be d6ca 8ebe 8a93 bcbe
000001d0: 059f 0ebe 63e3 88be 4a38 f4bd 690f 99bd
000001e0: abc3 c9be 1b1f 7d3f ce52 7ebe 34ee 9dbf
000001f0: fee3 df3f 19e5 dfbf cdac 10bf ebb0 0a3f
00000200: 94e0 a23e edec 78bd ec1b 94be 0f1b aebe
00000210: 6440 563f a717 8cbf d4eb 9fbe 5119 9fbf
00000220: c8ef 0fbf 9e17 ccbf 4e95 9c3f b504 d7be
00000230: bc39 04bf f0f2 50be 8e5e 02be 819a adbe
00000240: f71d 713f 72b1 74be 5a98 89be d54d 97be
00000250: e570 01be 44b7 b2be
-0.18137006 -0.35827777 -0.8827548 -0.02981906 -0.4509469 -0.7181097 -0.5831691 -0.033096366
-0.13930558 -0.30364212 -0.27969548 -0.16705216 -0.278025 -0.13390578 0.7759912 -0.20342165
-0.5680257 0.25446498 -0.46738443 -0.33275002 0.13829078 -0.1955676 -0.33095476 -0.34319606
-0.17517093 -0.029654931 -0.16482289 -0.6737663 0.5118794 -0.30124158 -0.29267702 -0.21707925
-0.32081565 -0.62074083 -0.33808905 -3.2226906 -0.023211425 -0.422439 -0.70590705 -0.2459189
-0.13636123 -0.09536122 -0.31615382 0.5211139 -0.99246126 -0.6378595 -0.47852698 -0.52199614
-0.033562977 -0.06733601 -0.5455242 -0.29710072 -0.3254668 -0.32570252 -0.5693262 -0.54222983
-0.40156353 -6.5294313 -0.1737309 -1.3367699 -0.26180136 -0.26600298 -0.28701758 -0.30107743
0.33746436 -0.46154115 -0.37362903 -0.112376355 -0.08885501 0.83762056 -0.43696365 0.12954026
-0.60366493 -0.45526195 -2.6744013 -0.8291079 -0.3777174 -0.4451538 -0.41175357 -0.5831862
1.2596775 1.5899909 0.7081158 -0.1627941 0.9413912 -0.31864747 -0.75876206 1.0681174
0.04803578 0.10634102 -0.23857357 -0.0581289 -0.29178825 -0.31413054 -0.34335467 -0.54243803
-0.25034463 -0.45588568 -0.27203685 -0.15878285 -0.49758652 -0.18440275 -1.107002 0.406149
-0.4234247 -0.18249 -0.20150775 0.9989009 -0.4639067 1.6624084 -0.43439245 -0.0107376315
0.73300517 -0.32378387 -0.27889127 -0.36831313 -0.13927849 -0.26735982 -0.11924799 -0.074736424
-0.39407095 0.9887559 -0.24836275 -1.2338319 1.7491453 -1.749179 -0.56513673 0.54176205
0.31811965 -0.060772825 -0.28927553 -0.3400502 0.83692 -1.0944718 -0.3123461 -1.2429601
-0.5622525 -1.5944707 1.2233064 -0.4199578 -0.51650596 -0.20405173 -0.12731382 -0.3390694
0.9418635 -0.23895815 -0.26874048 -0.2955157 -0.12640722 -0.34905446

weight f4 [150, 150]
00000000: b084 17be 7ad3 e5be c8c2 a6bf c528 a93c
00000010: d3b2 d23d 912c 20c0 7dcc e73e f26b a4bc
00000020: fae3 59bd 30b2 f3be 14cb b8bd ce66 ae3d
00000030: 385c 4ebe 67fa 2cbe e603 e93f 7739 eebc
00000040: 56c4 b2bd 0a48 c6bf f073 16be 9a8a 01be
00000050: d640 8cbe 07c5 4cbe f299 3cbd 8e8f f33d
00000060: 55cb 1cbe 90e0 9b3d 01ea b1bd 05ff 8abf
00000070: 9070 193f 092f d1bd 7799 383e ffbf 71be
00000080: 8cb0 39bc 1ed9 dcbd 9043 5cbe 413f 56bf
00000090: ad1c febc 0455 cf3b bb86 97be b00e 86bc
000000a0: a346 313e caf7 5ebd abd6 84bd f07e 6bbf
000000b0: 1a52 fe3b d45a a53d 0046 59be 37ef 90be
000000c0: b9d6 dabf e456 f83d 1cff 4fbd 7b63 233b
000000d0: 83fb 3f3e 3e04 85be 7542 de3d f86a fd3c
000000e0: 48ca e73c 369f 90c0 dbd3 b73d ab63 a4bd
000000f0: a97f c33e 4d8b 663e fe4d 8fbe 7a51 853e
00000100: cfab 063f 3a40 89be 7a36 5fbe fb75 a43c
00000110: 8d03 8c3d 2eda a83c 775f 013d 86bd b2bc
00000120: 1baf 6a3e 10c5 04be a30f 6fbf 5c8b 5dbd
00000130: 4072 b43d f439 e8bc 3e16 523e fc8f a83d
00000140: d42e c6c0 ff6e 08bf 0a6b 96bf 0c36 8a3d
00000150: 89d7 89bd 91d2 623e 53a2 bcbd fa42 d43e
00000160: ec78 82bf f5d0 87bf 4bab 9a3d 687d aa3d
00000170: c414 93be b951 2bbd cc92 8ebe cd65 25bf
00000180: c589 5b3e d19b ec3c d37e cbbd b39c aa3d
00000190: e679 843d dfdf 9fbe 4111 e83c bf67 863e
000001a0: 6d96 61be bd55 d53d d5dc 893d cbaf 843e
000001b0: 4339 76bd 434c 32bf 5796 66be 1d1e b3bb
000001c0: 0bce 09c0 0704 03be 1945 3ebb 864a 1dbe
000001d0: 7684 21bd 39d1 56bd b529 babd f946 54bd
000001e0: 554e 3bbe 3cb6 12c2 688c f2bd 718e 99bd
000001f0: 3f69 59bf a289 f5bd 9ea3 e5be 88e4 9dbe
00000200: c96c b6bf c375 0a3b 1ba0 a3be 01db a2bd
00000210: f5ba 13c0 2bee 883f d8ed 74be 3b2d eabf
00000220: 4ad6 313d 38b4 d2be 027e d0be 846f 0fbd
00000230: 4cda e7bd 4b5d 5c3d 7b7f 06be 5247 743e
00000240: bd94 55c0 e3f4 50be d67b 343b 127d 34bd
00000250: 3378 573e ca84 41bc b5ba 1f3e 5a4d 02bd
00000260: a6a0 bdbd 8eb6 cfbd 68b1 a93d 0f94 1dbe
00000270: 3f21 3bbd e595 50bd 3fd6 a4bd 531e aa3d
00000280: 2fed 863d 6fd5 08bc 3cfd 5fbc 1c92 ab3e
00000290: 5408 82bc 0872 a0bc 5458 85bd c110 03bd
000002a0: e262 e8bd 6829 66bd ac28 49bd 101e 0dbe
000002b0: e528 a23d 891d b3bc 0985 aebd 9b9f 92bd
000002c0: 2e34 b93c 6659 07bd 79e4 2ebd 9443 55bc
000002d0: b08c acbd 2396 b3bd 0f94 a43d dca5 fabd
000002e0: 7a4e 603c 56ed 6cbd 2082 b13d b64d 603d
000002f0: 6417 17be 7873 76bd 6c0f f8bd e304 f5bb
00000300: c586 053d 36c5 923c dba0 f0b9 205e 8e3c
00000310: a398 28bd d530 5bbe 4993 d7bd 1d78 063e
00000320: 67e6 6a39 1934 a83d c162 9a3d 5b66 113e
00000330: 6769 163d 4035 0bbd 09ac 2eb9 f185 983c
00000340: 47e9 63bd a66e ea3d cb31 7dbb b7ee 723c
00000350: 7550 9b3d c957 80bd cd6f 09bd ab97 7a3d
00000360: 7165 3cbe 440e d5bc 7c5f c2bc 4c5e df3c
00000370: ae03 853c 19dc afbd 143e 0a3d a753 863c
00000380: 236e 713b 9594 75bd 6b9d 3f3c 8221 113d
00000390: 85d2 b03c b063 703c 9ce7 3dbe eeaa 0b3d
000003a0: 84c4 30be 86e6 c8bd 46b4 f63a 8254 fa3d
000003b0: 41ac 5cbe 92c7 f2bd 38e0 b3bd 01fd e2bc
000003c0: cf52 cebc cdd8 20bc da44 143e e951 23be
000003d0: ca44 103d 4537 75bd 1e8d 35be 2852 a9bb
000003e0: 72c5 c6bd 0ef1 99bd 418c 973c cbbd 7bbd
000003f0: c6b3 343d 3df0 193c f02d 24be 73dc 953c
-0.1479671 -0.44887906 -1.3028193 0.020649323 0.10288014 -2.50272 0.452732 -0.020071004
-0.05319593 -0.47596884 -0.09023109 0.08515702 -0.20152366 -0.16892396 1.8204315 -0.029080136
-0.08728854 -1.5490735 -0.14692664 -0.12650529 -0.27393216 -0.19997035 -0.04604525 0.11892615
-0.1531194 0.07611191 -0.08687211 -1.0859076 0.5993738 -0.10214049 0.18027292 -0.23608397
-0.011333596 -0.10783599 -0.21510148 -0.8369027 -0.031019533 0.0063272733 -0.2959498 -0.016364425
0.17312102 -0.05443553 -0.06486257 -0.91990566 0.007761252 0.08073965 -0.21218109 -0.28307506
-1.7096778 0.12125948 -0.0507804 0.002493112 0.18748288 -0.259798 0.108525194 0.030934796
0.028294697 -4.519435 0.08975955 -0.08026823 0.38183334 0.22514077 -0.2798919 0.26038724
0.5260591 -0.26806813 -0.21798125 0.020075789 0.06836615 0.020611849 0.031585183 -0.021818887
0.2291836 -0.12965798 -0.93383235 -0.05408798 0.08810854 -0.028347947 0.20516297 0.08230588
-6.1932163 -0.53294367 -1.1751416 0.0674859 -0.06730563 0.22150637 -0.092106484 0.4145735
-1.0193152 -1.0610644 0.07552203 0.083247006 -0.2872678 -0.041825984 -0.27846372 -0.6460846
0.21439274 0.028882893 -0.09936299 0.08330669 0.06468563 -0.31225488 0.02832854 0.26251027
-0.22030039 0.10416744 0.067315735 0.2591537 -0.060113203 -0.69647616 -0.22518288 -0.0054662363
-2.1532009 -0.12794505 -0.0029032885 -0.1536046 -0.039432965 -0.052445624 -0.09089986 -0.051825497
-0.182916 -36.677963 -0.118431866 -0.07497872 -0.8492622 -0.11989142 -0.44851393 -0.30838418
-1.4251949 0.002112732 -0.31958088 -0.07951928 -2.308286 1.0697683 -0.23918855 -1.8295053
0.043417253 -0.4115312 -0.40721136 -0.03501846 -0.11320934 0.05379991 -0.13134567 0.23855332
-3.3372033 -0.20405917 0.0027539632 -0.04406459 0.21041946 -0.011811445 0.15598567 -0.03181205
-0.09259157 -0.101422414 0.08285791 -0.15388511 -0.045686003 -0.0509242 -0.08048677 0.08306565
0.06588208 -0.008351668 -0.013671216 0.3350991 -0.015873112 -0.019585624 -0.06510988 -0.0319984
-0.113469854 -0.05619183 -0.049111053 -0.13780999 0.07917956 -0.02186467 -0.08521468 -0.071593486
0.022607889 -0.03304424 -0.042698357 -0.0130166 -0.084252715 -0.08768871 0.080360524 -0.122386664
0.013690585 -0.05784353 0.086673975 0.05476161 -0.14755017 -0.060168713 -0.121123165 -0.007477389
0.03259923 0.017916303 -0.00045896214 0.017378867 -0.04116119 -0.21405347 -0.10526139 0.13131757
0.0002240181 0.08213062 0.07538367 0.14199202 0.036721613 -0.03398633 -0.00016658021 0.018618556
-0.055642392 0.11446886 -0.0038634415 0.014827422 0.07583705 -0.06266744 -0.033553887 0.061179798
-0.18398072 -0.026007779 -0.023727171 0.027266644 0.016237106 -0.08586902 0.03375061 0.01639731
0.0036839328 -0.059956152 0.011695246 0.035432346 0.021584759 0.014672205 -0.18545383 0.034098558
-0.17262465 -0.09809594 0.0018822036 0.1222315 -0.21550085 -0.11854471 -0.08783001 -0.027708532
-0.02518597 -0.009817314 0.1447939 -0.15949215 0.035221852 -0.059867162 -0.17729613 -0.0051672645
-0.097056285 -0.07516681 0.018499495 -0.061460298 0.044116758 0.009395656 -0.16033149 0.018293595

bias f4 [150]
00000000: 9712 6bbf 981b 5bbd e06e 2d3f da28 6b3f
00000010: 9b4f 64bf dcc6 9bbf bfad 07bf 3920 31c0
00000020: de81 46c0 0307 10be c2a5 f8be bf7c 9fbe
00000030: 7175 1ac0 7de8 41c0 4134 e23e 5437 abc0
00000040: c558 d2bf 0ac2 38c0 f77a 95c0 2a27 af3d
00000050: 66ad 48bf 191e 5ec0 3b20 eebf 8c60 0bbf
00000060: dbc7 d43d af19 38c0 d3b1 87c0 c1ba 3ec0
00000070: 8cd5 2fc0 6960 f1be 3a13 4fc0 0762 42bf
00000080: 35f5 02bf 3a5e 33c0 5de6 b1be f8af 28be
00000090: b921 babf a849 e3c0 241f c2be c60f fabe
000000a0: 589c f2be 3ce9 bcbe d127 c2be 3552 bdbe
000000b0: 5061 0f3f 7ee0 3ec0 77f0 48bf 3555 84bf
000000c0: 8aa9 0740 412d 05bf 2876 943e d42e c63f
000000d0: 3fd1 17c0 c284 93bf 145e 94bf def8 c6c0
000000e0: 630d 92be 4c3b 2ebe fc61 7ebe c78d 12bf
000000f0: bbfa 793f ee35 b1be daab 61c0 1813 2dbe
00000100: f13a e3bf efc0 afbf cbbc ca3e 8168 63bf
00000110: d09b 11bf 524a cfc0 6d70 cabe 5566 05c0
00000120: cfb7 f2be d212 d9be d54e a8be 843f e43e
00000130: 8ca0 50c0 d1f2 ebbf 7e9e 4b3c 4c5a 35be
00000140: 35d1 37be a4d0 f8bf 0ff7 4fbe 0717 eabe
00000150: 5f2c bcbb 1c86 cfbe 53f7 8fc0 2c33 31bf
00000160: 07df 52be a362 e4be 70c5 18bf c6d5 303e
00000170: 1a3e ecbe 7978 5abe 6d34 2ebf 329d d6bf
00000180: 3a92 2cbf cad3 25be fad7 25c0 27cd 0bc0
00000190: 05f3 6bbe 643b a7be d3d2 e2be ba84 1fbf
000001a0: a27f 82be 8b62 7cbe 9918 37be 5c59 46bf
000001b0: 4834 af3f f808 65bf f6b5 27bf 102a 60c0
000001c0: 7aad 23bf 16d4 debf 4c74 06c0 89d0 ecbe
000001d0: 6807 e6bf cb50 26be 9acf 54bf d8f0 55be
000001e0: 0ddb 1fbe 8929 9bbe 77bc debe 0a4d 82be
000001f0: ba9d f4bf 7db1 54c0 666d b1be 84e0 cdbe
00000200: 9710 47be 359a f6bf e38c 26be e04a b1be
00000210: 725d 31be 6f6f 12bf 9834 ffbe 88d4 59bf
00000220: c821 22bf 1633 7dbf 6735 5abf ac99 a0be
00000230: 18f3 85c0 e18e cebe c5da 26c0 c893 f0bf
00000240: 0043 0ac0 aafc 84be 60a9 67bd 501d 7d3e
00000250: a61a d9c0 76d9 3d3f
-0.9182524 -0.053493112 0.67747307 0.9185921 -0.8918397 -1.2170062 -0.5299949 -2.7675917
-3.1016765 -0.14065175 -0.48563963 -0.3114986 -2.413418 -3.029815 0.44180492 -5.350504
-1.643334 -2.8868432 -4.6712604 0.08552392 -0.78389585 -3.470587 -1.8603586 -0.54444194
0.10389682 -2.8765676 -4.240457 -2.9801486 -2.7474089 -0.47143868 -3.2355485 -0.7593083
-0.51155406 -2.8026261 -0.34746066 -0.16473377 -1.4541541 -7.1027412 -0.37914383 -0.4884016
-0.47384906 -0.36896694 -0.37921003 -0.3697678 0.5600786 -2.982452 -0.7849192 -1.0338503
2.1197228 -0.52022177 0.28996396 1.5483041 -2.3721464 -1.152489 -1.159121 -6.2178793
-0.28525838 -0.17014807 -0.24842066 -0.57247585 0.9764821 -0.34611458 -3.526114 -0.16901815
-1.7752362 -1.3730754 0.39597163 -0.88831335 -0.56878376 -6.4778223 -0.395389 -2.0843709
-0.4740586 -0.4239717 -0.32872644 0.4457971 -3.259799 -1.8433477 0.012427924 -0.17710227
-0.179509 -1.9438672 -0.20309089 -0.45720693 -0.005742594 -0.40532005 -4.498941 -0.6921871
-0.2059289 -0.44606504 -0.59676266 0.17269048 -0.4614113 -0.21335019 -0.68048745 -1.6766722
-0.67410624 -0.16194072 -2.5913072 -2.1843965 -0.23041923 -0.326625 -0.4430147 -0.623119
-0.25488 -0.24646966 -0.17880477 -0.774801 1.368783 -0.8946681 -0.65512025 -3.5025673
-0.6393658 -1.7408473 -2.1008482 -0.4625285 -1.797101 -0.16241758 -0.83129275 -0.20892656
-0.15610905 -0.30305126 -0.43503162 -0.254494 -1.9110634 -3.323333 -0.34653777 -0.40210354
-0.19439922 -1.926581 -0.16264682 -0.34627438 -0.17320803 -0.57201284 -0.49844813 -0.8508992
-0.63332796 -0.98906076 -0.85237736 -0.31367242 -4.1859245 -0.40343383 -2.6071026 -1.8795099
-2.1603394 -0.25974017 -0.056558013 0.24718213 -6.784503 0.74159944

weight f4 [2, 150]
00000000: bb72 55be 62bc 4eba ed76 8d3d daa3 ef3d
00000010: ffae 39be 1732 04be b54c bc3c fa04 27bd
00000020: cc1f ac3d 71bc 80bc 2195 bfbe 585f d53d
00000030: 1fa0 ce3e b981 5dbc 2821 063d d932 d23c
00000040: 0801 fdbd b8c9 7a3d 0292 e6bd 21c0 873c
00000050: e960 6a3e 2a6c 9ebd 306e 23bd cf77 98be
00000060: 65ef ea3d 4efa 4cbc 4347 d23d dd1d 513c
00000070: 5991 72bc 0462 4fbe a8d8 4fbe 667b 04bf
00000080: 5bf8 3f3a 5472 a33d 665a 08be 910f 75bd
00000090: 6269 483e 90a0 f2bc 5c0f e0bb 7ab9 533d
000000a0: 7538 a93e f84f 4a3e 802d 38be 186c bc3c
000000b0: b508 4b3c 9c17 0abe ff8c 3bbd 0c13 ca3d
000000c0: 3318 023e c3a8 cc3d 7591 233e 921f 01be
000000d0: a3d1 9b3e af2a c6bd 8c0e 713e 69aa 38bd
000000e0: 342f a2be f242 323e 7b40 b83d ec79 12be
000000f0: ff1c 60bd 93bb 3dbd 7818 58bd 9428 503d
00000100: ccb2 f5bd 1b9e 4cbe d57e 003e 8640 5b3d
00000110: 43a9 503d 3f84 423e 2ed4 123d 9174 863e
00000120: ead9 113e a737 a4be 945e 193d ec4e 593e
00000130: 11dd 003b 2896 adbd df6d eebd d288 aa3c
00000140: 3bc9 ec3d 9dfc 193d f050 06be b320 493e
00000150: 43b1 4bbd 3b39 a4be a3e0 223e e8e7 a7bc
00000160: 70f4 34be 80cd e4be b779 d4bd 3b0a 3e3c
00000170: e6d0 adbd a5e1 7d3e a603 1d3e 068b b53e
00000180: af96 d2bd efd5 7f3e 5c09 0b3d bb1e 83be
00000190: 45e7 19be 697e 65bd 9d23 05be 5f9d 2c3e
000001a0: 02c8 a93e bebc 39be 2aac f9bd 07e9 d6bd
000001b0: 6473 d9bd c46f cf3d 4c41 bfbc 0884 e4bc
000001c0: 39ed b23b 5456 ff3d 4f97 793a 62bf 463d
000001d0: ceb5 063e b99e de3d 2d59 933b b271 10bd
000001e0: 2f32 c63b 5764 c83c 4711 5f3e 4ebb adbe
000001f0: 6b04 063e 9fab 733e a946 1cbe a527 503d
00000200: 529d 27be 5d81 1b3e ad57 febd 2320 0c3e
00000210: a1cf eebd 8d64 d1bd fa15 86be 8690 c53d
00000220: f30a d33d 4700 a13d 198b 8bbe 6108 bf3d
00000230: c624 b8bd e0df 973e db34 fabd c7f8 6bbe
00000240: b6a4 80bc f4cd 493e 64f6 6e3d a64d 0abe
00000250: 8233 67bb 0b41 ffbd 4ab5 38bd 46d4 a43d
00000260: 4850 403a 0e29 b83c c493 87be 4854 673b
00000270: 66cf 46be 0db2 893c 55d8 033f b377 933d
00000280: 9aeb 59bd f340 0fbd 721a b5be 391c e33d
00000290: 9e0f ac3d 18bf ebbc 6c3d c3bb dd85 2fbe
000002a0: 7107 fdbd 4608 0ebe 999d 9c3d 0f99 4b3d
000002b0: d56f 38bd 2122 19bd 4267 713e 1813 5bbe
000002c0: 9f31 a83c f4a1 093e e413 11be 00c1 3abe
000002d0: 0196 553c e40f 4b3d 1208 0abe 410d 03bd
000002e0: a9b6 20be 6b47 39bd fb36 5d3e d792 54bd
000002f0: fc80 863e 7343 a03e 71bf 90be b54f f4bb
00000300: 9091 aa3e 7c50 26be 0d8c 063e b7e6 1dbe
00000310: 18b6 5a3e 727e babc d4fc 29bc 86a2 713c
00000320: 0874 54bd 0c0d 92bd 230f 3b3e 024f ac3d
00000330: eff1 bcbd 3aa9 8d3d 40b9 863e 254b 71be
00000340: dc43 443b 9697 9dbe 4e43 3a3e bc6e ba3e
00000350: 9ad8 d2bd 0a32 303d c63f 153c 42c0 a3bb
00000360: 6577 4ebc 5031 abbe b784 db3d a505 04bc
00000370: d7a8 653e 4e2b b93e 1bf0 8e3d 15f0 a8bd
00000380: 8da1 863e cc95 c03d a050 1c3e 7070 913d
00000390: 4af7 363c 6c18 3c3e d771 8ebd c61a 423e
000003a0: 704d 3bbe d2f1 a93e 0a2d b93d 1c4b 2bbe
000003b0: e980 873d 0638 0bbe 0506 4e3d a54b 4f3e
000003c0: e3b2 8dbd 429d e23d 8a2c 893e 201e eebd
000003d0: 7b06 883d ea65 7a3e 65de 24be c846 abbd
000003e0: 5c50 eabd 1891 f2bd 57d7 9a3d af8b c5bd
000003f0: 84f1 2fbd 0f3a 2d3e 56f7 4abe da06 8b3d
-0.20844547 -0.00078863476 0.06907449 0.11701174 -0.18133162 -0.12909733 0.022985796 -0.04077623
0.08404502 -0.015714856 -0.37418464 0.10418576 0.40356538 -0.013519698 0.032746464 0.025659012
-0.12353712 0.06122753 -0.112583175 0.016571106 0.22888531 -0.077354744 -0.039900005 -0.29778907
0.11471442 -0.012510849 0.10267498 0.012763468 -0.014805161 -0.20252234 -0.20297492 -0.5175079
0.00073230796 0.07980791 -0.13315734 -0.0598293 0.1957145 -0.029617578 -0.0068377685 0.051690556
0.33050886 0.19757068 -0.17986107 0.023000762 0.012392213 -0.13485569 -0.04578876 0.09866914
0.12704544 0.09993126 0.15973456 -0.126097 0.30433378 -0.0967611 0.23540705 -0.04508439
-0.31676638 0.1740835 0.08996674 -0.14304322 -0.054715153 -0.046321463 -0.05275771 0.05081995
-0.119969934 -0.19982187 0.12548383 0.05352833 0.05094267 0.1899576 0.03584688 0.26260808
0.14243284 -0.3207371 0.037443712 0.21221513 0.0019663016 -0.08475906 -0.1164205 0.020817194
0.11561819 0.037594426 -0.13116813 0.1964138 -0.049729597 -0.32074913 0.15906005 -0.020496324
-0.1767137 -0.44688034 -0.10374778 0.011599119 -0.0848711 0.24793108 0.15333423 0.3545763
-0.10282647 0.24983953 0.033944473 -0.25609383 -0.15029629 -0.056028757 -0.13001867 0.16856907
0.33160406 -0.18138406 -0.12191041 -0.10493665 -0.10617712 0.101287395 -0.023346566 -0.027894989
0.005460408 0.12467638 0.0009521143 0.04852236 0.1315529 0.10870118 0.0044967146 -0.03526468
0.006048463 0.024461908 0.21783935 -0.33931965 0.13087623 0.23795937 -0.1526133 0.050819058
-0.16368607 0.15186067 -0.124190666 0.13684134 -0.11660696 -0.10224257 -0.26188642 0.09646706
0.10304823 0.07861381 -0.2725456 0.0932777 -0.08991389 0.2966299 -0.12217113 -0.2304412
-0.01570354 0.19707471 0.058340445 -0.13506183 -0.0035278504 -0.12463578 -0.045094766 0.080483004
0.00073361816 0.022480514 -0.26479924 0.0035298038 -0.19415054 0.016808534 0.5150197 0.07200565
-0.053203203 -0.03497405 -0.3537174 0.110893674 0.08401416 -0.028777644 -0.00595825 -0.17140909
-0.12354935 -0.13870344 0.07647247 0.049706515 -0.045028526 -0.037386063 0.23574546 -0.21394002
0.020531474 0.13440686 -0.14167744 -0.18237686 0.013036252 0.0495757 -0.13479641 -0.03199506
-0.1569468 -0.045234125 0.21603005 -0.05189785 0.26270282 0.3130146 -0.28271058 -0.007455791
0.3331418 -0.1624164 0.13139363 -0.15420042 0.21358526 -0.022765372 -0.01037522 0.014748221
-0.05186847 -0.07131395 0.18267493 0.08413507 -0.09225833 0.06917043 0.2631321 -0.23563822
0.0029947674 -0.30779713 0.18189737 0.3641261 -0.1029522 0.04301647 0.009109443 -0.004997284
-0.012601708 -0.3343606 0.10718673 -0.008057986 0.22427689 0.3616585 0.0697939 -0.08248917
0.26295128 0.094035715 0.15265131 0.07101524 0.011167357 0.18368691 -0.06955307 0.18955526
-0.18291259 0.33192307 0.09041794 -0.1672787 0.066163845 -0.1359559 0.05029871 0.202437
-0.069188856 0.11065151 0.26791793 -0.1162684 0.06641861 0.2445294 -0.16100462 -0.0836311
-0.114411086 -0.11844081 0.07560604 -0.09645783 -0.042954937 0.16916679 -0.19820914 0.06788416

bias f4 [2]
00000000: b588 c93e aceb 023f
0.39362112 0.51140857
