include/PlasticModel/Models/NN_model_f.pth (torch, 129927 bytes, 9 tensors)

weight f4 [100, 7]
00000000: 5b30 253b 9712 3fbb 83ed 8d3b 244d 003c
00000010: 3623 90bb 00fc 113b 84ac a1bb e8d7 173c
00000020: 7e05 573b fba2 5a3b 88d5 cfbb caf3 28bb
00000030: 2fb7 d63a cba4 003c f082 473e 9a3f b3be
00000040: 19a5 1e3e 97ff 01bf 8b4b 843d b9d8 333f
00000050: 02c5 f43d dc57 6cbc 985b 4d3d 246e 13bd
00000060: 558b d8be 3998 f2bd 7b00 703e 672e 813d
00000070: 5631 17bf b31a 073f a8b0 7f3d f5e4 533f
00000080: b132 5c3e 52b4 a9be a9a8 59bd ec5f 16bb
00000090: 8d2c edbb b490 af3a bb3f 17bc 766a 083a
000000a0: 1595 523b 33ce 59bb ae06 013f c2fc 3f3d
000000b0: b71c 0dbf bc59 393f a57e 37bf 60fa 8abd
000000c0: 6f04 9bbc 6f94 253f 8a11 72be d48f d2be
000000d0: c9b5 9fbd bdb7 a3be abdc 243f 4c90 053c
000000e0: 699d beba dea5 07bb 2932 403b eb72 a43a
000000f0: 60cc 6eba d854 163b dd98 ec3b 0b06 af3b
00000100: ff96 343e 89c0 36be a290 aabe e3c3 ae3e
00000110: 3e53 41bf 530d e2bd a16b a3be 5d37 823e
00000120: 0ab4 863d e8ac 93be f9b7 fabe 0bfa d8bd
00000130: d4c7 cf3c 7056 8bbb 66cb 32ba b08f 9fbb
00000140: fb04 95bb e3e3 693c 6450 8a3a dc3c ba3a
00000150: 68c9 9dbe 8ce9 de3d 87b8 4a3e f81b dbbe
00000160: 52e6 25bd 9ece 6a3f 7cfb debd a4d9 4a3e
00000170: ff18 d5bc 8df7 2dbe 687f 3e3f c7e1 8dbe
00000180: 3805 fbbe 4f95 bbbd 54f7 64be 9f7a a23e
00000190: 6ffe c2bd 87c0 7f3e 222b 0f3e 4060 143f
000001a0: e297 debc 98a8 e93a 45d9 973b 0bb1 173a
000001b0: c5ee 593c aa5f 9d3a cd9b d3ba d6d4 5bbb
000001c0: ce4c 4abe a1fe c6bd f051 973e 700a f5be
000001d0: 419c 4cbf ad6f 0bbf 82ca 37bd b675 fb3e
000001e0: ce94 333d f941 09bf 669b dfbe f223 953e
000001f0: 5300 30bf 5b11 7f3c 96a5 03bf 1ad1 dc3e
00000200: d2d6 a93d 833d a93e ceb8 033f f775 9ebe
00000210: b0ae ecbc ce52 823e 6eba 21bf cdb2 c13e
00000220: 12a3 48be 8e5a 363f 98f1 1abf 2e0f ad3b
00000230: 1c4c 1fbb 14ac cbbb 3acf 273c 0c31 81be
00000240: c22d ffbd 7876 713e 1696 9dbc 6307 adbb
00000250: def2 7e3b e556 29ba 4761 b2bd 9601 12be
00000260: 8d7b 0a3e 9434 e53d e0c7 d03d c139 8d3e
00000270: 959a c0be c749 073f d262 533f 7ac2 4f3f
00000280: df0f bebd c1cb 553e f37b 3d3e 24de c8be
00000290: 1374 48bf f03f cebb bd57 5ebf b74f 0fbd
000002a0: 131c 18bb d9af 15bc 9ccd a8bb a120 f0bb
000002b0: 3d76 043c 6c19 553b fb68 67bc 2b35 463c
000002c0: 5dc6 e2ba 1469 08bc 3bd2 d8b8 7dc9 36bc
000002d0: 6456 253c 5ebb efbc 25b1 53b8 8f5c 283a
000002e0: a7be a8bb 253d bd3b bd3a 0dbb 4938 88bb
000002f0: 3e5d 06bd 61c8 4e3c 6ac9 3cbb 39f0 6abc
00000300: 5bbc ba3c 84a3 82bb 9b42 46bc 3c91 7bbc
00000310: 885a a9bb 11cc 66bb 7584 0ebc d02f e13b
00000320: 4907 763b 7205 f1bb c281 14bc e485 053e
00000330: 2a0b 0d3e f48a 8abe 51f0 e43e 7e11 fd3e
00000340: 1d56 d03e ded4 dd3d d6c1 00bb 3e99 58be
00000350: 6937 5a3e c7a1 0ebe a262 8fbf 9c08 02bf
00000360: 68e1 02bc 844e 28bd f4f3 b7ba 3721 213d
00000370: 2a4f e9be ebb6 b7bd 6a64 bbbe 7f80 94bd
00000380: 2265 ed3d f0b6 b9be c6db 7b3e 1102 f9bc
00000390: cccf 6f3e 5337 c43d e1c9 683e 11db f4b9
000003a0: e168 8fbb bb0e 583b 1dbb 9cba 5bfd 5db8
000003b0: 071c 9c3a 3276 f0bb cb06 d8bb c435 f5bb
000003c0: 2c23 daba 9668 db3b aade ac3b c0f0 513b
000003d0: 5265 e0bc 8a1a 0bbd b179 d1be 7b09 e13e
000003e0: 56a8 47bf 6edd 83be 5b26 2c3e 8284 13bc
000003f0: 4221 19bf 859c f13e 95d4 013e 5b8d dcbe
0.0025205824 -0.0029155368 0.004331292 0.007830892 -0.0043987287 0.0022275448 -0.0049338955 0.009267785
0.003280967 0.0033361304 -0.0063425936 -0.0025780075 0.0016381497 0.00785179 0.19483542 -0.35009462
0.15492667 -0.50780624 0.06459721 0.7025257 0.11951639 -0.014425244 0.05013618 -0.03599371
-0.42293802 -0.118454404 0.23437683 0.06307679 -0.59059656 0.52775115 0.062424332 0.82771236
0.21503712 -0.33145386 -0.053139362 -0.0022945357 -0.007237977 0.0013394565 -0.009231503 0.0005203852
0.0032132317 -0.0033234477 0.5040082 0.046871908 -0.5512194 0.7240255 -0.7167762 -0.067860365
-0.018923013 0.64679617 -0.23639503 -0.41125357 -0.07798345 -0.3197612 0.6439921 0.008152079
-0.0014542761 -0.002069823 0.0029326773 0.0012546455 -0.0009109434 0.0022938754 0.007220371 0.0053412965
0.17635725 -0.17846884 -0.3331347 0.34133825 -0.7551764 -0.11037698 -0.31918052 0.25432864
0.065773085 -0.28842854 -0.48968485 -0.10594567 0.02536384 -0.0042522475 -0.000682047 -0.004869424
-0.004547713 0.014275524 0.0010552523 0.0014208811 -0.30817723 0.10884389 0.19796954 -0.42794776
-0.040502854 0.9172152 -0.108878106 0.19809586 -0.026012896 -0.16988964 0.74413157 -0.27711317
-0.4902742 -0.09159338 -0.22359973 0.31734177 -0.095211856 0.24975787 0.13981298 0.57959366
-0.027172033 0.0017826734 0.004634055 0.00057865743 0.013301556 0.001200666 -0.0016144455 -0.0033543608
-0.19755861 -0.09716535 0.295547 -0.47859526 -0.79925925 -0.5446728 -0.04487086 0.49113244
0.043843083 -0.5361629 -0.43673247 0.29128987 -0.68750495 0.015568103 -0.5142454 0.43128282
0.08292927 0.33054742 0.51453865 -0.30949375 -0.028891891 0.254538 -0.63175094 0.37831727
-0.19593456 0.71231925 -0.6052489 0.0052813506 -0.002430684 -0.0062155817 0.010242278 -0.25232732
-0.124598995 0.23580348 -0.019236606 -0.0052804216 0.0038902084 -0.00064597867 -0.087099604 -0.14258417
0.13523693 0.11191669 0.10194373 0.27583125 -0.37617937 0.5284695 0.8257266 0.8115612
-0.09280371 0.20878507 0.18504314 -0.3923198 -0.78302115 -0.006294243 -0.8685263 -0.03498813
-0.0023210093 -0.009136164 -0.0051514637 -0.0073281084 0.008084831 0.0032516373 -0.01412415 0.012097637
-0.0017301549 -0.008325834 -0.00010338841 -0.011156437 0.010091398 -0.029264148 -5.04713e-05 0.0006422484
-0.0051496807 0.0057751113 -0.0021549903 -0.0041571003 -0.032803766 0.012621016 -0.0028806576 -0.0143395
0.022794893 -0.0039867777 -0.012100841 -0.015354451 -0.005168263 -0.0035216848 -0.008698572 0.006872155
0.0037540963 -0.0073553855 -0.00906414 0.13039356 0.1377379 -0.27059138 0.44714597 0.49427408
0.406907 0.10831617 -0.0019646785 -0.21152207 0.213102 -0.139289 -1.1201975 -0.50794387
-0.007988311 -0.041090503 -0.0014034496 0.039338317 -0.4556821 -0.08970436 -0.36600047 -0.07251071
0.11591555 -0.36272383 0.24595556 -0.030396493 0.23419112 0.09580865 0.2273326 -0.00046702524
-0.004376516 0.0032967764 -0.001195762 -5.292646e-05 0.0011910208 -0.0073383087 -0.0065926067 -0.007483216
-0.0016642562 0.006695817 0.005275567 0.0032034367 -0.027392063 -0.033960856 -0.40913156 0.43952546
-0.77991235 -0.25754875 0.16811506 -0.00900376 -0.5981637 0.47189727 0.1267875 -0.43076596

bias f4 [100]
00000000: 16c8 ccba 0d3a 8338 e7ae 93bd 5a49 90bd
00000010: 92f7 41bd 6a85 313c 3786 c1bd 1d0f dabd
00000020: 68cd d1bb 92d7 5ebd ffc3 a2bd 4167 fe3a
00000030: 9a85 aebd 2e07 4fbe 67d3 1a3c 96d8 1ebb
00000040: 9ba2 3bbd 46f6 17be 3df2 d33a eeae 5cbd
00000050: a2d6 2fbd 97c9 d3bd 0eab 093c d2b7 57bd
00000060: 4ebc 623c 1899 a03c 024b 14bb d481 b0bc
00000070: 6529 9f3b 4bd5 afbd 17db a6bd b84e a7bd
00000080: 2692 48be acb4 283b f1b7 3f3c 3765 f33c
00000090: 2023 61bd b125 68bd c1dc d0bd 589d c93a
000000a0: 900b 71bc d07f 10bc bff0 3cbc 8ba9 c2ba
000000b0: 2baa 303d b986 42bd 29bb b9bc 46df 05be
000000c0: 3a6a 11bc 30cc 81bd 01c7 92bd cea9 8a3b
000000d0: d77c 8cbd a292 00bc 2045 00bd 3566 e13b
000000e0: 025e 963d cd5c 85ba 9cec bbbc 2c43 94ba
000000f0: 9099 8c3c 5112 ba3b b782 84be 8643 cdbd
00000100: 0008 713c 43d0 fbbb 743b 43bd a9b3 ccbd
00000110: e52f 233c 66cd a33b 0222 32be cf53 82bb
00000120: 66a7 2abc 9d1e dcbb 5cb6 933c cb71 1eba
00000130: 92a0 42bc 9d00 ba3b 9436 d03b 414d 24bd
00000140: 7915 26bd f73f 1bbd a2d2 4bbb a868 f73b
00000150: 096f 85bb 486c 443c daf0 9fbe 1442 e8ba
00000160: 10cf 913c 66cb c23a 8b0c e2bb 9114 f3bb
00000170: 422c a2bd 0c4d a53b a6d7 d93b 7886 85bb
00000180: b5b3 ea3b fe38 c13a bded fbbd f19e a9bd
-0.0015623595 6.2573796e-05 -0.07211094 -0.07045241 -0.047355242 0.010835031 -0.094494276 -0.10647414
-0.00640266 -0.054404803 -0.079475395 0.0019409434 -0.08521576 -0.20217583 0.009449816 -0.0024237982
-0.04580937 -0.1484004 0.0016170215 -0.053877763 -0.0429293 -0.103411846 0.008402599 -0.05266554
0.013838841 0.01960425 -0.0022627716 -0.021546282 0.0048572295 -0.08585604 -0.08147257 -0.08169311
-0.19587001 0.0025742454 0.01170157 0.029711349 -0.05496514 -0.05667657 -0.101983555 0.0015381975
-0.014712229 -0.008819535 -0.011532008 -0.0014851553 0.043131035 -0.047491763 -0.022672253 -0.13073453
-0.008875424 -0.06337774 -0.07166863 0.004231668 -0.06859749 -0.00784746 -0.031315923 0.006878639
0.07342149 -0.0010174752 -0.022939973 -0.0011311523 0.017163068 0.005678453 -0.25880978 -0.10022645
0.01471138 -0.007684739 -0.04766412 -0.09995205 0.009960149 0.0049988506 -0.17395785 -0.003977276
-0.010415887 -0.0067175166 0.018031292 -0.0006044178 -0.011879103 0.0056763426 0.0063541625 -0.040112738
-0.04054782 -0.0379028 -0.0031100889 0.007550318 -0.0040720743 0.011988707 -0.31238443 -0.0017719888
0.01779893 0.0014861643 -0.006898468 -0.007418223 -0.07918598 0.005044585 0.0066480218 -0.004074868
0.007162536 0.0014741716 -0.12301204 -0.08282269

weight f4 [100, 100]
00000000: 679d 13be b95b 0a3d 5ce1 0a3b 4862 873c
00000010: de78 b5bc c573 ba3d 57eb e9ba 1e6a 3a3e
00000020: 77ce cdbc a6c9 bfbd f9d8 6b3d 7501 0bbc
00000030: 5049 633e c103 d53d 422a 3f3e 52b0 073d
00000040: b5b4 963d 2f95 0ebe c8e7 bd3c d8b9 06be
00000050: 3bd9 073e 11a3 0fbe c5bb 12be c8f2 94bd
00000060: 932d 60bc 38f3 7ebc 88d3 d63b 9555 47bd
00000070: e0ec 41bd 4d54 19be 7b77 dbbd 2992 813e
00000080: 41ed 813d 912c e23b 431c 503d 9cd3 96be
00000090: 7b98 33be acf4 9b3d ff57 04be dfff a23d
000000a0: 1195 133e f824 fabd 5997 353d c9b4 15bd
000000b0: 00de af3d 2f23 293e e4b4 17be 4501 2fbe
000000c0: 0f30 ae3c 3d61 68be 5828 4fbc 2400 16bd
000000d0: 901b 37be 4068 b63c d963 343d d24e a53e
000000e0: 3558 01be f198 c73d a06f 1b3b 094b 03be
000000f0: d2f9 8c3d cd6d 663c e2f1 903e b8cf 0a3e
00000100: 071f 9fb8 3939 a6bd 1a63 983e d8d9 943e
00000110: 5d14 aebd 88d3 07bf 655d 563e 535d 3abc
00000120: 882c bbbd 3eea 973c 6bf8 203e 546c 1bb9
00000130: bdd9 cabd ca0e 383d 7239 24be e17f d7bd
00000140: 33a2 3bbe fbb0 a53d f3bd a33d a448 76be
00000150: b6d3 90bc be86 573d 6ee2 3abe 0c74 443d
00000160: 53ac 383e dc48 3c3d 7bd5 0abc 4d35 0bbd
00000170: 20f6 783d 9ee1 673d c335 493e fca0 4a3d
00000180: 1c27 e0bc c4be 03bd 11ec 2a3e 0e2b 6fbd
00000190: 9311 51bd 3333 25bc f0b8 83be fe8d 60be
000001a0: 7c1b eabe 7bbb 613d 44a6 3f3e ea49 3fbd
000001b0: 28f8 d4bb 8a83 3bbe 7500 cebe e88b 8e3c
000001c0: 48e8 3a3e 5049 70be aa6d 803e 3a1c 473c
000001d0: 477b 8a3d 0f0f a53e bab7 81be 7440 cfbc
000001e0: d725 32be c8ec e3bd 66ad 1b3e 37bb fe3c
000001f0: da69 373d 2fc8 0bbe b5cb ec3c 8724 a13d
00000200: 6d64 c43c ef7a 0cbe 4033 4c3e ffc4 aabc
00000210: e7a4 46bd 308f 173d bc73 303d bf1a 27be
00000220: dc74 ba3e c8c2 89be c0a9 41bf 9fdc 443c
00000230: 5041 18bd 05b7 3b3d b122 a6bd c4af 153c
00000240: 61a4 033e d1c8 b1be d6cf aa3e d8fd 173f
00000250: 976f 853d b30b 08bd dccc 9abc ba9f 7fbd
00000260: 0481 3fbe 1b16 063d b54d a9be f987 a03c
00000270: 91fa b63e ad36 02be 3c11 423d 6c91 d8ba
00000280: ad57 55bd 30f0 dbbc 9970 7d3d 1906 643e
00000290: 3a52 05bd 2364 c6bc 994e 0a3e 5f4c 283f
000002a0: 7e35 1b3e 85b3 26bd 2ea1 8ebd 7c6d 2bbc
000002b0: 1187 33bc 5259 1dbc 496b 583e cd8c 75bd
000002c0: c93d 023e c114 02bd 8bb9 babd 6930 cc3d
000002d0: 0f23 223e a7f7 dc3e 9337 81bb f854 efbd
000002e0: 6384 d03b f2d2 08bd 0f66 21be 15d8 143d
000002f0: 4cd4 bcbd 8910 913c 7e22 8b3b 4221 003d
00000300: 0635 2fbf 4f0b 8cbb b5bc 87bd abda 9b3b
00000310: 62d0 133d 3556 c63c af33 d0bc 6e83 d2bb
00000320: 271e f43b 2f79 963a 96bb 24be 4051 343e
00000330: 7def ea3d 185f 913c e680 61be f729 39be
00000340: fb3a ba39 861a 58be 9b8f 553d 63c5 593b
00000350: 820a fcbc f86e 8c3e e389 4cbe 2e79 00bc
00000360: 59b1 9bbd 4e04 c5be fef0 bbbd e778 b8be
00000370: ce2c 7bbe febc 37be d871 25be 0201 74be
00000380: 3955 933c ac8a 663c bf82 853c 57a3 83bd
00000390: ab9e 51bb 1536 54be 4fc6 a53e 9eb2 45bc
000003a0: 5b39 c3be 0742 223c 0912 f83b c321 1cbf
000003b0: 8388 10bf 34ef adbe a7c9 c03e 003f 133b
000003c0: 6621 b0be 1125 05be bb71 6dbc c3a9 f239
000003d0: 3e98 84bc 0cbb f6bd 774f 22bf 37ef 52bd
000003e0: 00fd 04be 656b 92be 31eb 8bbe 1ee1 c5b9
000003f0: 6485 27bd bee0 5dbd bda2 adbe 9d11 2cbe
-0.14415513 0.03377888 0.0021191454 0.016526356 -0.02215236 0.091041125 -0.0017846626 0.18204543
-0.025122864 -0.09364633 0.057579968 -0.008484234 0.22195935 0.104011066 0.18668464 0.033127137
0.07358686 -0.13924097 0.023181811 -0.13156831 0.1326646 -0.14027049 -0.14329441 -0.07272869
-0.013682741 -0.015560918 0.006555978 -0.0486656 -0.047345042 -0.14973564 -0.107161485 0.25306824
0.06344081 0.0069022854 0.050808202 -0.2945832 -0.17538635 0.07615027 -0.12924193 0.0795896
0.14412333 -0.122140825 0.04433379 -0.036549363 0.08587265 0.16517328 -0.14815098 -0.17090328
0.02126315 -0.22693343 -0.012643896 -0.036621228 -0.17881608 0.022266507 0.044040535 0.32286698
-0.12631305 0.09745968 0.0023717657 -0.12821592 0.06883587 0.0140642645 0.28309542 0.13555801
-7.58749e-05 -0.08116383 0.29763108 0.29072452 -0.08499978 -0.53057146 0.20934065 -0.011374789
-0.09139353 0.018544313 0.15719764 -0.00014822307 -0.099048115 0.04493598 -0.16037539 -0.10522438
-0.18323593 0.08090397 0.07995214 -0.24051148 -0.017679077 0.052618735 -0.18250439 0.047962233
0.18034486 0.04596792 -0.008473749 -0.03398638 0.060781598 0.05661165 0.19649415 0.049469933
-0.027362399 -0.03216435 0.16691615 -0.05839067 -0.05104215 -0.010083008 -0.25727034 -0.21929166
-0.45724094 0.055110436 0.18715769 -0.04670135 -0.006499309 -0.18311897 -0.40234724 0.017400697
0.18252671 -0.23465466 0.25083667 0.012152726 0.067617945 0.3223805 -0.25335485 -0.025299288
-0.17397247 -0.11129147 0.15202865 0.03109513 0.044778682 -0.13650583 0.028905729 0.07868295
0.023973668 -0.1371877 0.19941425 -0.020845888 -0.048497107 0.03700179 0.043079123 -0.16318797
0.36417282 -0.2690642 -0.7564964 0.012015491 -0.03717166 0.045828838 -0.081120856 0.009136144
0.12855674 -0.34723523 0.3336169 0.5937171 0.06515425 -0.033214282 -0.018896513 -0.062408186
-0.1870156 0.032735925 -0.33067098 0.019596087 0.35738042 -0.1271617 0.047379717 -0.0016522831
-0.052085567 -0.026847929 0.06187496 0.22267951 -0.03254912 -0.02421767 0.13506545 0.65741533
0.15157124 -0.040698547 -0.06964336 -0.010463115 -0.010957495 -0.009603815 0.21134676 -0.05994873
0.12718882 -0.031758074 -0.09117421 0.09970171 0.15833686 0.43157694 -0.0039433925 -0.116861284
0.006363438 -0.033404298 -0.15761589 0.036338884 -0.0922018 0.01770808 0.004246055 0.031281717
-0.6844028 -0.004273809 -0.0662779 0.004756292 0.0360874 0.024211029 -0.02541527 -0.006424359
0.0074498835 0.0011480207 -0.16087183 0.1760912 0.1147146 0.01774554 -0.22021827 -0.18082415
0.00035520628 -0.21103868 0.052138906 0.0033229224 -0.03076673 0.27428412 -0.19974475 -0.0078413915
-0.07602186 -0.38479847 -0.09176825 -0.3602974 -0.2452881 -0.17943189 -0.16156709 -0.2382851
0.017984973 0.014071148 0.016297696 -0.06427639 -0.0031985443 -0.20723756 0.3237786 -0.012066511
-0.38129696 0.009903437 0.0075705093 -0.60989016 -0.564583 -0.3397156 0.3765385 0.002246797
-0.3440048 -0.13002421 -0.0144924475 0.0004628432 -0.016185876 -0.12047395 -0.63402504 -0.051497664
-0.12987137 -0.2859756 -0.27327874 -0.00037742493 -0.040898696 -0.05416941 -0.33913222 -0.16803594

bias f4 [100]
00000000: 2007 f93d cfb7 edbd 28a0 27be 9c9e 6c3d
00000010: 9e66 b73c abf4 0c3d 055b e93d 64af 2bbd
00000020: e49d 9cbb 1b51 353e bcb1 e33d 413f 1e3d
00000030: c465 d9bd 4398 953c 9f0c e53c 532f e7bb
00000040: 23d2 bd3d a950 0abd 8d4d 9cbb c499 b23d
00000050: a4c1 c0bd e563 ff3d 3ae7 6e3e bfff 283d
00000060: 56de a73c fc05 b1bd 615f 603c 6b40 c73d
00000070: b619 893b 6acf 23bd e249 fbbc d415 cdbd
00000080: 8b5d a33d 9e4f cabd c8c0 003d 3a50 64b9
00000090: 9961 e8bb 515a 133d 2c14 663e 56f0 073e
000000a0: f554 cd3c 925d 8cbd 4eb9 f03c 23fa c03d
000000b0: 61f5 ec3c ee43 a93d 42ba cbbd 246e 003c
000000c0: 4d8b 15bb 990a 983a 583c a33b ad48 de3b
000000d0: 315e 5bbd d1f4 bd3c 2579 193d 831d 8c3a
000000e0: 6db2 d53c e7dc c7bc 5af9 bd38 94f1 143d
000000f0: 65b4 22be 3d96 1e3e d029 55be 970b 6b3d
00000100: 897a d63c e58b dc3d fdd1 143e 27f0 6ebd
00000110: 5cba d5bd e83f 893d 5cd5 cebd 00f2 023d
00000120: 5f6d 4d3d d40a 56bd 39b0 a33d c2a4 a1ba
00000130: cdd9 b0bd 76be 13be 34b3 e13d 9eb9 f3bd
00000140: 815d ce3b 8427 7c3d 0341 0cbc e58f 4dbd
00000150: 5f7c 6bbc ef64 d33c a7ec 503d cd3b 9d39
00000160: de17 80bd 74b3 903d d706 7bbd 43c9 163d
00000170: 56f1 083d ba69 b13d 89ff 4abd 4c86 a4bd
00000180: 60e7 bf3d 976a 153d 0baa cabd 999c f4bd
0.12159562 -0.11607324 -0.16369689 0.05776845 0.022387799 0.03441302 0.11394314 -0.041915312
-0.004779564 0.1770672 0.111178845 0.038634542 -0.106151134 0.01826108 0.02796012 -0.007055202
0.09268596 -0.03376833 -0.004769987 0.08720735 -0.09411934 0.12470225 0.23330393 0.041259523
0.02049176 -0.086437196 0.013694615 0.097290836 0.004183973 -0.039992727 -0.030674879 -0.10013929
0.07976826 -0.09878467 0.03143385 -0.00021773661 -0.0070917127 0.035974804 0.22468632 0.13275275
0.025064925 -0.068537846 0.029385235 0.0942271 0.0289256 0.0826491 -0.09947635 0.00783876
-0.0022818625 0.0011599838 0.004981559 0.006783566 -0.053556625 0.023188027 0.037469048 0.0010689948
0.026086057 -0.024397327 9.058668e-05 0.0363632 -0.15889128 0.15486999 -0.20816731 0.0573841
0.026181476 0.1076887 0.14533229 -0.058334496 -0.10435936 0.06701642 -0.10099289 0.03196907
0.050153133 -0.05225642 0.07992596 -0.0012332427 -0.08635292 -0.14428124 0.110205084 -0.11900638
0.0062977676 0.061561123 -0.008560422 -0.050186057 -0.014372914 0.025804965 0.05100694 0.0002998993
-0.06254552 0.07065478 -0.06128582 0.036813032 0.03343328 0.08662744 -0.049560104 -0.080334276
0.09370303 0.036478605 -0.09895714 -0.11943931

weight f4 [100, 100]
00000000: 25c0 ab3d 3e43 0bbe d5b6 703e cf78 873e
00000010: 445c bbbd 3731 423e 581b f2bc 8c62 d3bd
00000020: 1a7e ebbd 59f3 2ebe 1b15 b93c 9991 f1be
00000030: 6dcc cd3d 52da c03d ecc1 7a3c e4e0 e23d
00000040: 076b efbc f4b7 64be e5d6 b43a 86e2 493e
00000050: 8011 bdbe 4692 513d b243 6b3e 7119 05be
00000060: 767a 24be 72ce 213e 5d7d 70be e936 b1bd
00000070: c7e6 873e 836a d0bd e709 bdbd f629 2bbe
00000080: 145b 733d 4b6a 233e 6806 ff3d 3cdb 1fbe
00000090: 968f 4ebd f2bc ae3d 6d30 e2be 7adc ecbc
000000a0: afeb 16be 57a4 bfbe 3299 3f3e 40a9 f63e
000000b0: 79b9 653d ae4b 0b3e 393f cebc a28f 9bbd
000000c0: 81a3 863e fca2 c6bd 75f1 11be ab3a 8bbe
000000d0: 567c ad3e 23ef 51bd f360 ef3e 9857 0cbe
000000e0: 9786 7e3e 067d e53e e550 5cbe cd12 1fbe
000000f0: 9be3 92bb 7603 b53d ed1e df3d ac64 173f
00000100: 6222 533c 1821 353c 8313 a1be 7ac9 aabd
00000110: b477 f43e cb56 203e 0604 3bbe 1055 e93c
00000120: 9315 07bf 5ba8 0c3d 362e 1bbe fb64 b9be
00000130: 0e17 f0bc bdcf b0bd 5b27 c2bd c41d 91bd
00000140: 086e 343e beec 6abd a10c 37bc ed78 00bd
00000150: bc6f 533e 7d64 583e 2088 4e3e 53e2 55bc
00000160: 59d4 83bd 4758 65bc 5053 19bd c33e 83bd
00000170: 1923 aa3e 390c f1be b0a4 763d b52f 6e3e
00000180: 4bda 5fbd 6003 a03e c09c 883d 83a2 963e
00000190: 0c31 3cbe ae79 1cbe 96cd a03e ffec 44be
000001a0: 49ad f63d 50a5 2cbe 0cad 003d 4ebe 6f3e
000001b0: 6e15 e5be 6762 c83d 44a0 adbe b257 93bd
000001c0: 3449 05bd 38b6 3fbe 0b2b 10b9 93a6 cf3d
000001d0: 0ce6 04be 1a44 31be a37e 2fbe e18d 183d
000001e0: 578f 933e df58 583e 20b9 1d3f 7918 393e
000001f0: d225 d8be 3237 4ebe b0bf bf3d 9d37 733e
00000200: 20e5 433e 0ad7 81bd a993 80be 8869 e63d
00000210: c321 583d d7f9 07bd a8db b93d b059 3a3e
00000220: 107b 85be 0299 37be 9f99 c9be 91ad 023e
00000230: 8ede 83bd f6b3 0dbd 03db 2d3e 2fd5 ebbe
00000240: 577e 51be 199e 453e f594 713e 71a0 0c3e
00000250: afef 2e3f 878e 54be c9f1 803e 642e 003d
00000260: 79bd 19bd 035b edbc 351f 253f fa59 8b3c
00000270: 0c4e 943b a153 fdbd 5596 1f3e 210d 163e
00000280: e526 07be 6b28 28bc 1b42 58be 70dd aa3e
00000290: 13c4 0abe 931e 5e3e bdfd 5dbe 4324 473d
000002a0: 4cf2 93bc 78e2 51bd ebb8 f33d 12ae 36be
000002b0: d10b 2c3e 472a 893e 05ad e4bc f893 36bd
000002c0: c3df 6cbd 300c 3d3d e3d9 62be 739a 8dbd
000002d0: d9b6 93be 3d9c cabd e2d7 f53d 57e4 0f3e
000002e0: 05d2 0bbf 995f 15be 543a bcbd 9e55 45be
000002f0: 86e0 063c f300 163d 14e9 cd3c e9d3 8f3d
00000300: ea33 f9be 3acb ca3d 04eb 8f3d 7ddd f43e
00000310: 6574 37be 94a0 9a3e 2641 91be 7d63 31be
00000320: 3c8c aebc 277c c83b 37eb 48be 8234 bdbd
00000330: 927a 233e 0bc7 38be a904 f8bb 798f 1b3c
00000340: 1eff a33e b1a3 693e f1d0 f4bd acdf 723c
00000350: 72f8 2bbd 8e7a 633d deee 093e c967 52be
00000360: b7db 223b ede4 743d fa3f e53d 038a c7be
00000370: bb4d 8bbd e9f1 13be 4a77 23be 8eca 36bd
00000380: 3894 41be f4b4 073e 7bdd ab3c bee7 8ebd
00000390: ef58 d53b 5811 9c3d 64bd f5bd bd71 e4bc
000003a0: c861 733d bbe6 88bd c766 a23d 653f 5dbd
000003b0: 11c6 62be 24d6 99bd 2393 8f3d d11a 7f3d
000003c0: 697c 2abe 8990 903d 901e b3be 373f 3d3e
000003d0: 5ffd d13d 542a 24be 7f10 26be 8b26 08be
000003e0: ee04 b4bd 1139 863b 03fa 913d 8578 79bc
000003f0: 7f95 17bd ed8f 0c3d de42 c33e 5c17 7e3e
0.08386258 -0.1359987 0.23507245 0.26459357 -0.09148458 0.18964086 -0.029554054 -0.10321531
-0.11498661 -0.17085017 0.022593072 -0.47181395 0.10048757 0.09416641 0.015305024 0.11078051
-0.02922584 -0.22335798 0.0013796954 0.19715318 -0.36927414 0.051164888 0.22975042 -0.12997986
-0.1606234 0.15801409 -0.23485322 -0.086530514 0.26543257 -0.101765655 -0.09230404 -0.16715226
0.05941303 0.15958516 0.12452394 -0.15610975 -0.050429903 0.08532132 -0.4417757 -0.028913725
-0.14738344 -0.3743007 0.18710783 0.48176003 0.056085084 0.13603088 -0.025176631 -0.07595755
0.2629662 -0.096990556 -0.14252265 -0.27193198 0.33883923 -0.05125345 0.46753654 -0.1370529
0.2485603 0.44821948 -0.21515234 -0.15534516 -0.004482699 0.08838551 0.108945705 0.5913799
0.0128866155 0.011055253 -0.314602 -0.0833921 0.47747576 0.15658109 -0.18263254 0.028482944
-0.52767295 0.034340244 -0.15154347 -0.36209854 -0.029307868 -0.08633373 -0.09480163 -0.070857555
0.17620099 -0.05735468 -0.011172445 -0.031365324 0.20648092 0.21132083 0.20169115 -0.013054448
-0.064369865 -0.013998098 -0.03743297 -0.06408455 0.33229902 -0.47079638 0.060215652 0.23260386
-0.05465154 0.31252575 0.06670523 0.29420862 -0.18378085 -0.15280792 0.3140685 -0.19231032
0.1204477 -0.16859937 0.03141503 0.23412439 -0.44742912 0.09784394 -0.33911335 -0.07194461
-0.032540515 -0.18721855 -0.00013748945 0.101391934 -0.12978381 -0.17311135 -0.17138152 0.03724468
0.28820297 0.21127652 0.61610603 0.18075742 -0.42216355 -0.20138243 0.09362733 0.23751684
0.19130373 -0.063398436 -0.25112656 0.11250597 0.052766573 -0.03319725 0.09075099 0.18198276
-0.26070452 -0.17929462 -0.39375016 0.12761523 -0.06438933 -0.034595452 0.16978078 -0.46061084
-0.20458351 0.1929859 0.23591979 0.13733079 0.6833448 -0.20757495 0.25184467 0.03129424
-0.03753421 -0.028974062 0.64500743 0.017010678 0.0045259055 -0.123694666 0.15584691 0.14653446
-0.13198431 -0.010263543 -0.21118967 0.33372068 -0.13551359 0.2169135 -0.21678825 0.048618566
-0.018059872 -0.051241368 0.11900505 -0.1783984 0.16801383 0.26790068 -0.027914533 -0.044574708
-0.057830583 0.0461542 -0.2215343 -0.069142245 -0.2885044 -0.09893081 0.12004067 0.14051948
-0.5461734 -0.14587249 -0.09190813 -0.19270942 0.0082322415 0.036622 0.025135554 0.070228405
-0.4867242 0.09902044 0.070272475 0.47825232 -0.17915495 0.30200636 -0.28370017 -0.17323108
-0.021307103 0.0061183157 -0.19620977 -0.09238531 0.15964726 -0.18044679 -0.007568915 0.009494656
0.32030576 0.2281635 -0.11953915 0.014823835 -0.041984983 0.0555368 0.13470027 -0.20547403
0.0024850199 0.059788633 0.11193843 -0.38972482 -0.06801935 -0.1444775 -0.15963474 -0.044626765
-0.18904197 0.13252622 0.020979634 -0.06977795 0.006510846 0.076204956 -0.11999014 -0.027886266
0.059419423 -0.06684633 0.079297595 -0.054015536 -0.22145869 -0.07511547 0.07010486 0.062281433
-0.16649021 0.07058818 -0.34984255 0.18481146 0.10253405 -0.16031772 -0.1621723 -0.13295953
-0.08790003 0.0040961583 0.07127764 -0.015226488 -0.037007805 0.034316946 0.38136953 0.24813598

bias f4 [100]
00000000: 1daf 6cbe 91b8 a4be c653 343c 7b84 eebd
00000010: 5a06 173d 4fcb abbe 2ee2 d6be 4e82 a3bd
00000020: 1f66 203b 6050 51be 5b18 763d 19a5 54be
00000030: 8cec fcbd 2192 acbd 8a7e 53bd 38ea 17bb
00000040: 78ad cd3b a16d 46be 8dbe 91be d9e2 863c
00000050: f406 233e 1107 80bd 0bb8 7bbf f93d e6be
00000060: 9525 00bd 75a0 9dbe f3fa d9be 129c 003e
00000070: e444 cf3c c7e6 8b3c f259 933d 2f4b 9dbc
00000080: bc6e f83b da21 d2be e661 11bc afde 91be
00000090: c115 aa3c 1c58 78bc cf4c 163d 988c c53d
000000a0: 4971 0dbe dc50 49bc 0d40 acbb 1fb0 8b3d
000000b0: c403 38bf 5e25 a3be 65f2 bbbe 9263 d23d
000000c0: d614 b73e 14a9 47be 44f1 b13c 10d4 2c3d
000000d0: 3fac a33c 9387 16be 9b66 053c 2cd9 fcbd
000000e0: 25a7 1dbe 5f54 a0be 5849 c8bc d982 89bd
000000f0: fb51 b03d 8636 bf3b d1e6 43bc 495d 4cbb
00000100: 21d0 5cbc 6c7f 84bc 85cf 2bbd 8c05 493b
00000110: 2f4e b8bc 75ee d23d abc4 293d ac9b 893d
00000120: 2e3a 66bb 5c0c 0dbe 5257 1bbc 2f46 89be
00000130: 0b90 80be bb5c a5be 08bf f1bc be9f 7fbc
00000140: 290e c6bb ffce 35be 93f7 89bc 6e0f babe
00000150: 302d 253d a289 2b3c f61c d8be b75b e5be
00000160: 453e d2bd 5dc3 54bc 1f9a 56bc 498c 833d
00000170: 0488 1ebd 7805 ceba f791 3abe 5106 5cbc
00000180: 531d 97be 5bbb 72bc 6c42 0bbf 4670 f23c
-0.23113675 -0.32172063 0.011006301 -0.116463624 0.03687129 -0.3355355 -0.41969436 -0.07983838
0.0024474931 -0.20440817 0.06008182 -0.20766105 -0.12349805 -0.084263094 -0.05163435 -0.0023180377
0.0062767826 -0.19377758 -0.2846569 0.016465591 0.15920621 -0.06251348 -0.983277 -0.44969156
-0.03128584 -0.30786481 -0.42574272 0.12559536 0.025301404 0.017077817 0.0719489 -0.01920089
0.00758156 -0.41041452 -0.008873438 -0.28490207 0.020762326 -0.015157726 0.036694344 0.09645957
-0.13812746 -0.012287345 -0.005256659 0.06820702 -0.71880746 -0.31864446 -0.3670837 0.10272898
0.35758084 -0.19498092 0.02172149 0.042194426 0.019979594 -0.14700155 0.008142139 -0.1234611
-0.15395792 -0.3131437 -0.024449036 -0.0671441 0.086093865 0.005835357 -0.011956886 -0.0031183532
-0.013477356 -0.01617404 -0.041945953 0.0030673472 -0.022498218 0.10299388 0.041447323 0.06719145
-0.0035129893 -0.13774246 -0.009481268 -0.26811358 -0.25109896 -0.3229731 -0.029510036 -0.01560205
-0.0060441685 -0.17754744 -0.016841685 -0.36339897 0.040326297 0.010469826 -0.42209595 -0.44796535
-0.10265783 -0.012986031 -0.013098269 0.06423242 -0.038703933 -0.0015718183 -0.18219744 -0.01342924
-0.2951456 -0.014815177 -0.54398227 0.029594552

weight f4 [100, 100]
00000000: 413c eb39 ba9a 2fb9 e912 803a 635b 01ba
00000010: 2557 f1bb d2b9 8339 ec8a 3bb9 056a 4e37
00000020: d32d 863b c13f 953a 6c61 1d3a a92b 203a
00000030: 707a bf39 9b6d 00ba 6c29 2e3a c395 d8bb
00000040: 43f4 2b3a 22f7 7239 6de8 17ba 49f4 bebb
00000050: 5b3e d13a 75a1 02bc 07cd 2dba ab53 1ab9
00000060: f7b7 17bc d839 d339 5513 0739 c9e2 45b5
00000070: 2ac3 78b9 bf3a 1a3a b297 87ba 7784 4ebb
00000080: f7a2 633a 8e81 e9b9 73d5 663a 7746 a6b5
00000090: 7423 2c3c d7ce 7dbb cfdd 3f39 c27a 563b
000000a0: c5d0 1eba 9061 4ebb d11f 30bc 9f1b 0239
000000b0: 69c1 b2b9 9c4b ddb9 529a 133a 5e88 2abb
000000c0: a956 b5b9 bfa5 26ba b8d8 313a ede4 943b
000000d0: ac47 4b3b 488a b439 20e6 003c 5e50 00ba
000000e0: 2c07 9d37 55e5 3fb9 909d 953c 6c88 e439
000000f0: 2429 8cbb 2597 34bb c3cb f038 db45 163c
00000100: 995e da38 3781 a7bb 613c 3137 11c5 2c3b
00000110: 85cc bbb9 8260 4f3b 7eb7 463a 360e 2dba
00000120: 7921 93bb d4b4 f838 aa5e dab9 bb7a e739
00000130: f579 ba3a 1c80 a43a 1ff3 9d3b db32 89bb
00000140: aa27 7c3b 8ac4 b6b8 f28b 1cbb 53f1 1cba
00000150: 4b28 23ba 146e 9238 ea73 b639 89e7 a6b7
00000160: a410 553a 21a9 7039 af49 d73b e6e8 26ba
00000170: 401a 903a f3b7 773b 4d49 9f3a 5649 363c
00000180: 783f 4c3a a78f b3bb dd95 da38 a4d0 4ebb
00000190: 372f 8239 97bc 2eb8 0c1d 3c3b 58d5 a63a
000001a0: c5a9 4cbb e352 bb3a deb7 00ba f346 0aba
000001b0: f662 c5bb d8ce 4339 0697 a63b 7630 82bb
000001c0: c284 56ba fb61 b7b9 0bce 4d3a 1948 e1bb
000001d0: 876f eab9 c827 b2ba bcba 4eba a28b 543c
000001e0: cdcb 1dbb d834 9237 5efb 9c3a 2ee7 b439
000001f0: 5f7a 5fbb 13cb ed39 e478 163a 06ea 8d3b
00000200: 5e79 fdb9 f24c 6d3a bb9a 6aba 4933 bbba
00000210: 9508 0e3b 9698 a8ba b538 3b3b a1c9 ad38
00000220: 0b52 e7b7 a3cf b7bb abbc 0b38 621d ccbb
00000230: 8e0d 07b9 69d7 7c3b c8b9 f4ba c625 5db9
00000240: c214 b638 21fc 52ba 0fda 67ba 600e 0b3a
00000250: 600e d33a 74d5 acba 045c 9339 eefa 113a
00000260: 4f6d 64b9 a0ec afba ace9 68bb 86bd 7dba
00000270: 747e 26b9 6980 8fb9 8fb7 8bbb b6f3 d538
00000280: 32f0 d63a 42ef 2a3a da38 f9bb cd96 483a
00000290: d3d4 433a 0eb6 5cba 5d53 303a 8110 573a
000002a0: 6285 0a3b 794b baba 5a2f cb39 098c aa39
000002b0: 31ad b7bb f866 efb8 3b69 973a 7823 1a3a
000002c0: e954 013a b1cc 81b8 3bcb 41bb afae c8bb
000002d0: 3978 d13b 782a 9fb9 0b2f ff39 8f65 d8ba
000002e0: 84f9 2d3b fefe 003b d510 7d3a c715 f038
000002f0: ba76 50ba 1595 d3ba c2a7 c1ba 457a ff3a
00000300: 7160 343a 8d27 bcbb 984b c039 548a ff3b
00000310: 7740 c5b8 b150 a3bb b076 bcb8 c318 31bc
00000320: 587e ee39 681a 5b3a 6a01 0fbb bac8 b9ba
00000330: 6d27 8dba 029e b139 860f 2e3a 4eab b73a
00000340: 742d 8d3b 89a3 543a a711 edb8 5aa0 283b
00000350: dc17 46ba c0b5 8f3a 5138 afb8 b642 633c
00000360: f696 4bbb 6a46 8239 815f 8c39 2964 f5bb
00000370: 00b1 f93a 962c efbb 7c05 40bb b637 95b8
00000380: 3c6d 753b 959b 86b9 1417 3bba 3708 3d39
00000390: fdbb 1bba 37c8 9dba 736c a53a 4325 403a
000003a0: 5ad4 2d3b 4c42 fb39 91ba 603a 9c70 d93a
000003b0: bc98 01bc 21c1 ab3a 2afd e139 43f4 fa3a
000003c0: 5d36 aab9 0259 0fbc 14c6 cbbb a1d6 ecba
000003d0: ed0c 67b9 514b ee3a 2143 3839 69b1 49ba
000003e0: 64f8 843a ca50 1d3a 3079 7d39 dc1b cdb9
000003f0: e7ae 00bc f471 4ab9 1bf4 d9ba e480 9939
0.00044867586 -0.0001674694 0.0009771261 -0.0004934577 -0.0073651248 0.00025124714 -0.00017885462 1.2303241e-05
0.004094818 0.0011386798 0.00060035917 0.00061100215 0.00036521582 -0.0004899145 0.00066437456 -0.00660965
0.000655953 0.00023170983 -0.0005794827 -0.005827461 0.0015964018 -0.007973065 -0.0006629978 -0.00014717753
-0.009260169 0.00040288153 0.00012881805 -7.3718235e-07 -0.00023723827 0.00058833876 -0.0010344891 -0.003151206
0.00086836464 -0.0004453775 0.000880561 -1.2388472e-06 0.0105065 -0.0038728022 0.0001829781 0.0032726978
-0.0006058331 -0.0031491257 -0.010749773 0.00012408056 -0.00034094907 -0.00042208738 0.00056306005 -0.0026021223
-0.00034587577 -0.00063570956 0.0006784308 0.0045438916 0.0031018062 0.00034435303 0.007867366 -0.0004894788
1.8719198e-05 -0.00018300612 0.018263608 0.0004358919 -0.0042773653 -0.002755591 0.000114820454 0.009171928
0.0001041267 -0.005111839 1.056408e-05 0.0026362578 -0.00035819798 0.0031643216 0.0007580443 -0.0006601544
-0.0044900742 0.000118592434 -0.0004165073 0.00044151195 0.001422702 0.0012550387 0.004820242 -0.0041869706
0.003847579 -8.7150445e-05 -0.0023887125 -0.0005986888 -0.00062239607 6.982326e-05 0.00034800108 -1.9896559e-05
0.0008127785 0.00022951189 0.006570063 -0.0006367102 0.0010994151 0.0037798851 0.0012152583 0.011125883
0.000779144 -0.005479771 0.00010422964 -0.0031557465 0.0002483071 -4.166047e-05 0.0028703837 0.0012728376
-0.003122912 0.001429167 -0.0004910211 -0.00052748545 -0.00602376 0.00018673704 0.0050839214 -0.003973062
-0.00081832346 -0.0003497748 0.0007850832 -0.00687505 -0.00044715052 -0.0013592178 -0.0007886102 0.012972744
-0.0024077774 1.7429164e-05 0.0011976769 0.00034504518 -0.0034100038 0.00045355465 0.000574006 0.0043308763
-0.00048346346 0.0009052298 -0.0008949448 -0.0014282252 0.0021672596 -0.0012862857 0.0028567736 8.286839e-05
-2.757555e-05 -0.005609469 3.3315893e-05 -0.0062290886 -0.00012879653 0.0038580543 -0.001867109 -0.00021090274
8.682303e-05 -0.00080484344 -0.0008844444 0.0005304571 0.0016102307 -0.0013186173 0.00028106582 0.00055687025
-0.00021784495 -0.001342196 -0.003553967 -0.0009679425 -0.00015878101 -0.00027370758 -0.0042638252 0.00010202026
0.0016398488 0.00065206375 -0.007605654 0.00076518656 0.0007470373 -0.0008419462 0.0006726289 0.00082040584
0.0021136631 -0.0014213166 0.00038754457 0.0003252926 -0.005605363 -0.000114155875 0.0011551747 0.0005879919
0.0004933612 -6.189326e-05 -0.0029570598 -0.0061243395 0.0063925055 -0.00030358485 0.0004867244 -0.0016509759
0.0026546428 0.0019683237 0.0009653692 0.00011448148 -0.0007952262 -0.0016142452 -0.0014774727 0.0019491395
0.0006880826 -0.0057420195 0.00036677415 0.0077984724 -9.4056995e-05 -0.0049839844 -8.986646e-05 -0.010809126
0.0004548903 0.0008358122 -0.0021820911 -0.0014174201 -0.0010769196 0.00033877796 0.00066398864 0.0014012845
0.004308397 0.0008111527 -0.00011304329 0.0025730343 -0.0007556656 0.00109642 -8.35514e-05 0.013870886
-0.0031065322 0.00024847995 0.00026774037 -0.0074887467 0.0019049942 -0.007299016 -0.0029300144 -7.1152506e-05
0.0037449142 -0.0002567439 -0.0007136923 0.00018027505 -0.0005940793 -0.0012037818 0.0012620821 0.0007329771
0.0026524276 0.00047923846 0.00085727224 0.0016589346 -0.00790995 0.0013103822 0.00043103966 0.0019146282
-0.0003246543 -0.008749248 -0.006218681 -0.0018069335 -0.00022034692 0.0018180405 0.00017572615 -0.00076939777
0.0010144827 0.0006001113 0.00024173106 -0.00039121404 -0.0078542 -0.00019306672 -0.0016628535 0.00029278465

bias f4 [100]
00000000: 1d5a 1539 3077 5aba 253d f2ba 83d9 febd
00000010: d178 45b7 1ccb 943b 081c 59bb 3dca 41bb
00000020: ec13 cf3d ed87 1eba 3e6f 47b9 09b1 94bd
00000030: 7394 fdb8 3dba ddbd be46 6a39 c144 beb8
00000040: ab11 b03a 7eb6 bcba 96c3 803a 5d24 213a
00000050: 9a8f 4d39 a36f f739 ac02 9739 bdac bc39
00000060: 85ca cf3b 33bc 77be f52b c63a f368 b23a
00000070: 10bb 693a 1c34 27bb 42d6 b1ba b9c3 beba
00000080: a2db 9038 75ad a8ba 9aeb 08bb 9db0 08ba
00000090: d47b 3fbb b653 e8ba 5813 55bd 3678 693b
000000a0: fdc4 22bb c7d5 0439 7005 cd3a 2eab 99ba
000000b0: 0309 533a 6700 953a 897c ba39 11c4 ed3a
000000c0: d016 7c3d daf5 40be 0091 1dbb 392f 413b
000000d0: 1bfd bdb9 3dd6 13bf 3692 7fba 3b50 5a3a
000000e0: 7001 69be 868c 933a bc0c 543b 18cd c8bd
000000f0: 1604 a639 3855 a33a c061 1ebb 5f4c 7a3d
00000100: 4868 a4ba 94c3 1a3a d780 373a ba8b db3a
00000110: 0090 733a bd0f d23a aff6 263d e9da b9bd
00000120: f73b e939 b8f0 15bb 8e8a c1ba 6cef 8ebb
00000130: 84cb 40be efe1 86bd 0503 b8ba 9a28 3439
00000140: 9f05 493a 4628 af3a c744 41ba 562d 85b9
00000150: bc2f a83a db44 f9bd b1bb 2dbb 0c03 f1ba
00000160: 00bc 523a ea67 96bd 7993 07bb b38b 3e3b
00000170: 462b 46bc c2a8 0b37 462f 47bd 7e94 b9b9
00000180: 10f5 df3a d84e 133b 2768 c7ba e0e8 07ba
0.00014243317 -0.00083338004 -0.0018481357 -0.12443831 -1.1770245e-05 0.004540814 -0.003312828 -0.0029570006
0.10111222 -0.0006047476 -0.0001901956 -0.07260329 -0.00012091631 -0.10826538 0.00022342333 -9.0727124e-05
0.0013433 -0.0014397649 0.0009823914 0.0006147081 0.00019603819 0.00047194687 0.00028802955 0.00035986854
0.006341281 -0.24192886 0.0015119301 0.00136116 0.0008916119 -0.0025513237 -0.0013567882 -0.001455418
6.907365e-05 -0.0012869077 -0.0020892383 -0.0005214306 -0.0029218094 -0.0017725143 -0.0520204 0.003562463
-0.0024836652 0.00012668139 0.0015641879 -0.0011723989 0.0008050354 0.0011367918 0.0003556947 0.0018140097
0.061545193 -0.18843785 -0.0024042726 0.002947761 -0.00036237467 -0.57748777 -0.0009749265 0.00083279953
-0.22754455 0.0011257089 0.0032356223 -0.098047435 0.00031665032 0.001246131 -0.002416715 0.06110799
-0.0012543285 0.0005903777 0.00070000946 0.0016750016 0.0009291172 0.0016026419 0.0407626 -0.09074957
0.000444859 -0.0022879075 -0.0014766024 -0.0043620374 -0.18827635 -0.06586062 -0.0014038986 0.00017181263
0.0007668379 0.0013363443 -0.00073726143 -0.00025401515 0.0012831609 -0.12171336 -0.0026509578 -0.0018387749
0.00080388784 -0.07344039 -0.0020687266 0.0029074966 -0.012095278 8.324338e-06 -0.048629068 -0.00035396585
0.0017086584 0.0022477414 -0.0015213535 -0.00051845424

weight f4 [1, 100]
00000000: 2565 a337 597f 4bb8 849c 3537 abcc 0d3d
00000010: 597d 4837 300b e23c 9dec d73c cd5d 39b8
00000020: 4fbe 033d d9c9 4f37 f18f 03b8 c3d3 ec3c
00000030: 1dc6 a2b7 0448 843c 582f 3eb7 8d6a ab37
00000040: 5352 fe37 4df8 adb7 e010 8136 5b76 6eb6
00000050: f920 15b6 a74b 1938 448e 59b8 31bd 8ab7
00000060: b531 1a3d 0b16 ac3c 64f1 abb6 5157 8f37
00000070: 50ca d436 f887 06b8 8539 ccb7 d3db 2fb8
00000080: efed 50b7 7de1 bd37 6c29 c3b7 d0c7 02b8
00000090: 693a c8b7 2ef6 f8b7 d702 b23c af45 193d
000000a0: 8cbb 6d36 d311 6cb7 00e1 4938 1a62 e137
000000b0: 1d91 d736 effe 9537 6519 4038 6253 9337
000000c0: 92d4 aa3c f917 bb3c dbb6 c636 6d80 8438
000000d0: 684c 5735 452e 2abe 31ee 2c36 2f77 8c35
000000e0: ab19 d93c a7de 02b7 4a92 cdb5 a19b ad3c
000000f0: 7ed1 eab6 b903 e037 12f9 8cb7 2100 b53c
00000100: b434 20b7 3765 0c37 edbc 4ab7 4537 f0b7
00000110: e0f1 f137 0ac2 1838 21b7 1b3d dc0a c23c
00000120: 8706 adb7 92e9 6e37 d278 4cb7 4dc6 fe36
00000130: 215f e83c f5f3 113d 5048 1db7 cafb 55b6
00000140: ee2f 69b7 a7cd 0337 9821 3db8 c7af 43b7
00000150: 8f53 0f37 2930 bc3c 661f c337 0f60 a135
00000160: 7f16 1b37 3fa5 da3c fa51 9f37 deed 7637
00000170: 95e4 9b3c 43d6 27b8 3b79 733c 38bb 15b8
00000180: aba9 e937 5093 b4b7 0a75 e9b7 4975 0035
1.9478213e-05 -4.8517573e-05 1.0824882e-05 0.034619015 1.1950114e-05 0.027593225 0.026357943 -4.4194796e-05
0.032163914 1.2385158e-05 -3.136689e-05 0.02890957 -1.9404159e-05 0.016147621 -1.1335906e-05 2.0434405e-05
3.0317495e-05 -2.0738831e-05 3.846464e-06 -3.5533656e-06 -2.2221923e-06 3.65485e-05 -5.1869327e-05 -1.6538981e-05
0.03764506 0.021006605 -5.1242987e-06 1.7087588e-05 6.3416446e-06 -3.207472e-05 -2.434548e-05 -4.192798e-05
-1.2453164e-05 2.2635557e-05 -2.32651e-05 -3.1180505e-05 -2.3869057e-05 -2.967854e-05 0.02172987 0.03741997
3.5424919e-06 -1.4070846e-05 4.8131682e-05 2.6867772e-05 6.4243927e-06 1.7880897e-05 4.5800018e-05 1.7562594e-05
0.020853315 0.02283858 5.922147e-06 6.318172e-05 8.0204927e-07 -0.16619213 2.5768643e-06 1.04655e-06
0.026501497 -7.800444e-06 -1.5316266e-06 0.021192374 -6.9981315e-06 2.6704614e-05 -1.6805283e-05 0.022094788
-9.549014e-06 8.368216e-06 -1.2084126e-05 -2.8635966e-05 2.884207e-05 3.6420337e-05 0.038016442 0.023686819
-2.0626247e-05 1.4240288e-05 -1.2187478e-05 7.592875e-06 0.028365673 0.035633046 -9.374766e-06 -3.1886034e-06
-1.3899042e-05 7.856091e-06 -4.5092398e-05 -1.1663832e-05 8.542919e-06 0.022972183 2.3260432e-05 1.2023391e-06
9.243958e-06 0.026690124 1.899245e-05 1.4718125e-05 0.019029895 -4.001545e-05 0.014860447 -3.569873e-05
2.7854772e-05 -2.152627e-05 -2.7830265e-05 4.785439e-07
